Different courses/Нейронные сети и обработка текста/stepik-dl-nlp/models/sentence_level_pos.pth (torch, 344115 bytes, 15 tensors)

char_embeddings.weight f4 [143, 64]
00000000: 0000 0000 0000 0000 0000 0000 0000 0000
00000010: 0000 0000 0000 0000 0000 0000 0000 0000
00000020: 0000 0000 0000 0000 0000 0000 0000 0000
00000030: 0000 0000 0000 0000 0000 0000 0000 0000
00000040: 0000 0000 0000 0000 0000 0000 0000 0000
00000050: 0000 0000 0000 0000 0000 0000 0000 0000
00000060: 0000 0000 0000 0000 0000 0000 0000 0000
00000070: 0000 0000 0000 0000 0000 0000 0000 0000
00000080: 0000 0000 0000 0000 0000 0000 0000 0000
00000090: 0000 0000 0000 0000 0000 0000 0000 0000
000000a0: 0000 0000 0000 0000 0000 0000 0000 0000
000000b0: 0000 0000 0000 0000 0000 0000 0000 0000
000000c0: 0000 0000 0000 0000 0000 0000 0000 0000
000000d0: 0000 0000 0000 0000 0000 0000 0000 0000
000000e0: 0000 0000 0000 0000 0000 0000 0000 0000
000000f0: 0000 0000 0000 0000 0000 0000 0000 0000
00000100: 6154 23be 49f6 863f 8b10 0a3f 0e2c bebf
00000110: eb96 d33f 1f36 74bf 892a f53f ad33 99bf
00000120: a15b 7c3f 147a b5bf 1721 93be 9c93 0ac0
00000130: 5580 b03f 475e 313f 2a21 09bf c36c c03d
00000140: f48e 16bf 9c40 33bf e491 d8bf 740d 253f
00000150: 5417 1d3e 9d1f 173f cddf b1bf 4f60 d5bd
00000160: 39cf 1740 dfb2 e5be 0873 b5be 6297 23bf
00000170: cadd 6e3f 4cfc 33be d5db 783f 0c2d ffbe
00000180: 5d02 0a40 9d20 c93e 5d7b 21bf a8d8 adbe
00000190: 9793 e4bf f9ad a9bf 17a7 543f 068f 2fbf
000001a0: 0cdb e3be 0d13 fe3d 6745 c2bf 05da c9bf
000001b0: 24a7 fbbf f968 89bf 194d e93e 4e12 dabe
000001c0: 0dea c1bf 04a9 c33e 153e 9fbf c139 ae3f
000001d0: fdc4 2d3f 0c0c 863f 273d 7cbe aa26 263d
000001e0: fa32 813d eff7 29be a1f3 0940 7ad9 e73d
000001f0: 7d69 9d3f 1810 0dbf f584 08be 8612 b6bb
00000200: 04a4 a33f 4f05 e5be f67f ab3f 5d9b 90bf
00000210: 15e9 c93e f119 863f 9420 d6bd 3e80 7ebe
00000220: 4760 d9be 13b0 233f 5418 b4be ee9b bb3e
00000230: 2e5f 363d c64c cabe f663 82bf 8877 043e
00000240: 85cc 0840 a667 3040 251a 2fbf 41fe fdbe
00000250: 9201 f0be eb71 863f 5149 44be 9daf d3bc
00000260: 5156 1b3f c386 89bd 4e40 8abf da11 8e3e
00000270: e6fb 843f e58e 2f3f b8c7 cb3e a839 733f
00000280: 9146 2fc0 5b3b 0bc0 7e2f 043f f612 f4be
00000290: 298f ae3f ef41 eabe 9784 87be e3d0 b3be
000002a0: cb6a e33e fb61 253e a788 893f a13d 0bbe
000002b0: 6e01 85bf dadb 9f3f 3cbb 3a3e 6a55 fa3b
000002c0: ce36 0ebf dd9e f1be 91d3 82be 435b 7f3f
000002d0: ad1b 4240 09b2 0cbf b070 1abf 4783 833f
000002e0: 0efd 80bf 25ac 01c0 59d2 81bc b17f 6b3d
000002f0: ef4c 313e b8ab b8be cf98 ae3e ef99 613e
00000300: 1e2c ac3f f6c3 8ebf c450 93be 7768 16bf
00000310: 90c3 3d3f 73de 8f3f 49cd dc3f 5f91 3f3f
00000320: 8304 04c0 875d 11be 9f47 6cbf 67fe ae3f
00000330: 7b2f 9ebe 0e73 f7be bb24 203e 5497 083f
00000340: e07b 12bf 4ae3 733f 1679 c53d 7c92 f23b
00000350: cfe2 c8be ff3f 323e 9a8f 75be a046 bf3e
00000360: ffe8 9dbd b303 153f 5376 44bf 9ffe d9bf
00000370: e880 41be 58b9 303f d132 eabe 556c e73d
00000380: de47 7cbf 3792 e33f a24d 173e f695 f53d
00000390: a229 ae3f f4aa 233f ad47 ed3d 6bd0 983e
000003a0: 73f7 303d 5dca 8a3e 160d 793f 5db5 b03d
000003b0: c5dc a5bf c097 82bd 374c a5bf b992 cfbe
000003c0: eeb9 953c 31fc bbbd 3606 1240 f1a4 663e
000003d0: 89e9 d63f 6fdc 89bf 704a 893f 9db5 cdbe
000003e0: 37f9 24bf 3ab2 f53e 2223 58bf 189d fb3e
000003f0: fc43 d2be b1d6 413f 63c9 8c3f e2b5 a23d
0.0 0.0 0.0 0.0 0.0 0.0 0.0 0.0
0.0 0.0 0.0 0.0 0.0 0.0 0.0 0.0
0.0 0.0 0.0 0.0 0.0 0.0 0.0 0.0
0.0 0.0 0.0 0.0 0.0 0.0 0.0 0.0
0.0 0.0 0.0 0.0 0.0 0.0 0.0 0.0
0.0 0.0 0.0 0.0 0.0 0.0 0.0 0.0
0.0 0.0 0.0 0.0 0.0 0.0 0.0 0.0
0.0 0.0 0.0 0.0 0.0 0.0 0.0 0.0
-0.15950157 1.054391 0.5393149 -1.4857194 1.6530432 -0.9539508 1.9153606 -1.1968895
0.98577315 -1.417788 -0.28736183 -2.1652594 1.3789164 0.6928448 -0.5356623 0.09395745
-0.5881188 -0.7002046 -1.6919522 0.6447365 0.1534093 0.59032613 -1.3896424 -0.1041876
2.3720229 -0.4486303 -0.35439324 -0.63902867 0.93307173 -0.17576712 0.9721044 -0.49839056
2.1563942 0.39282694 -0.6307886 -0.33954358 -1.7857541 -1.3256217 0.8306746 -0.6857761
-0.44503057 0.124059774 -1.517743 -1.5769659 -1.9660382 -1.073516 0.45566633 -0.4259209
-1.5149552 0.38214886 -1.2440821 1.3611375 0.67878705 1.0472426 -0.24632703 0.040564217
0.06308551 -0.16598485 2.155495 0.11320777 1.2297817 -0.5510268 -0.13331969 -0.0055564074
1.2784429 -0.44730613 1.3398426 -1.1297413 0.3943564 1.0476667 -0.104554325 -0.24853608
-0.42456266 0.6394054 -0.3517481 0.36642402 0.044524364 -0.39511698 -1.0186756 0.12936223
2.137483 2.7563262 -0.6839927 -0.49608043 -0.46876198 1.0503515 -0.19168593 -0.025840575
0.60678583 -0.06715157 -1.0800874 0.27747995 1.0389373 0.68577415 0.3980081 0.9500985
-2.738682 -2.1754978 0.5163497 -0.47670716 1.3637439 -0.45753428 -0.26468346 -0.35120305
0.44417414 0.16150658 1.0744828 -0.13597728 -1.0391061 1.2488968 0.18235487 0.0076395767
-0.55552375 -0.47191516 -0.25552037 0.9974863 3.0329392 -0.5495916 -0.603282 1.0274438
-1.0077226 -2.0261319 -0.015847372 0.057494823 0.17314504 -0.3606851 0.3410096 0.22031377
1.3450963 -1.1153553 -0.28772557 -0.5875315 0.7412653 1.1239761 1.7250148 0.74831194
-2.0627754 -0.14195834 -0.92296785 1.3671387 -0.308956 -0.48329967 0.15639012 0.5335591
-0.5722027 0.9526869 0.09642236 0.007402716 -0.3923554 0.17407225 -0.23980561 0.3735857
-0.07710456 0.5820877 -0.7674305 -1.7030829 -0.1889683 0.6903281 -0.45741895 0.112999596
-0.9854716 1.7778996 0.14775708 0.119914934 1.3606455 0.6393273 0.11585937 0.2984651
0.043204736 0.27107516 0.9728559 0.08628342 -1.2957999 -0.063766 -1.2913884 -0.40541628
0.018277135 -0.09178961 2.281629 0.22523858 1.6790019 -1.0770396 1.0725842 -0.40177622
-0.6444277 0.4798754 -0.8442861 0.4914329 -0.41067493 0.7571822 1.0998958 0.07944848

single_token_backbone.layers.0.0.weight f4 [64, 64, 3]
00000000: 9d3c b93d d2db 27be 8113 dd3d 11c7 8fbb
00000010: b4c4 c2bc 6bbe 1abe b532 a8be 4fad 353e
00000020: e531 e5bd a337 e0be f56e 353e b2d3 1e3e
00000030: a965 d2bc 5bf0 943e be4a 213e 1275 843e
00000040: 251f a53e aaf8 6dbe 9d72 ea3d 0056 d93d
00000050: 7c1e 45bd 30eb 78bd 1496 a8bd 0e84 28be
00000060: f7ad 22be e796 41be e5f0 afbd 0242 883d
00000070: 0e13 08be e0c5 f8bd b59d 283d e9d9 b53d
00000080: c755 1d3e 8e12 61bc 07f8 42be 4595 31be
00000090: 5ea7 743d f87c 263d 23a7 75be 4ada 80bc
000000a0: cf95 ac3d 0660 5e3e 9cea 94be 0166 be3e
000000b0: 7995 083e e1e3 923e aefd 453d 58ab ca3e
000000c0: 0efd 2e3e 5584 83be dc9c 8fbe 271f 1ebd
000000d0: 908f fb3d 5c7b 77bd d56c 0dbe b1b2 67be
000000e0: a274 83bd b85d bbbd 40b6 09be 5258 5239
000000f0: 6e38 75bd 5fa6 75be 2d0a 5abe 321b 0e3e
00000100: f94e dbbd 2c33 3e3c 7496 4abd cc99 033f
00000110: 6d19 d83e ed27 253e f164 223d 0cf8 b4b9
00000120: d039 83be 6d0d 9b3d 6419 febd 9442 77bc
00000130: e693 fcbe e76f 633e 2616 df3a 4eec 0f3e
00000140: 8bc3 f13d 8fd6 d43d 3bf2 893e 4c31 c73e
00000150: 2228 68be 3ca3 28be 30e2 47bc 00c2 fd3e
00000160: 19c1 82be e137 d73d 718e afbc 9f92 313e
00000170: 2109 cabd 41f0 113a 30bd ebbd 1f9a 35be
00000180: a8c3 05be 257b 473e fbe6 0d3d cebf ab3d
00000190: 627e 743e fc8c 33be f766 51be c8a9 d3bd
000001a0: ebc4 e13d 1d03 a13e 2c6d 223e 68cd a8be
000001b0: 7855 a33e ea2c 1fbe af24 c13e c8fa 343c
000001c0: 1a32 b0be 2295 19bd fa8d 2b3e f46a d1bd
000001d0: cd90 c7bd 592b 80bc fa31 0f3e f207 6dbe
000001e0: 13d3 2e3c a197 a3bd 695f c93d b16f 3fbe
000001f0: a6a2 19be de0b 0fbe bb94 1fbd 8ad2 88bc
00000200: b43f 7fbd bfb3 173e 6366 efbd 4c94 a43e
00000210: 4d06 babc 7db2 bbbd 2bec 0e3e 2431 873e
00000220: c70b dbbc 40bf 943b 5937 36be 8df6 6f3d
00000230: 3bd5 f43d bb34 b93d 94ed d03d 9e1f 453b
00000240: ae85 acbd 8b42 aabe ee25 1abd 9a4d ab3d
00000250: ca25 503e af45 1dbf 486a f2bd c7c1 a23e
00000260: b1cc 893e 65aa 22bf 3986 32be 077f 6ebe
00000270: 333d a2bc 3f13 f13d 5a55 173e 158d b53e
00000280: 530a 1cbe a34b b93e e1a2 3fbe 6cf1 ecbd
00000290: 79de 36be fa19 a23e 9445 e1be 26cf c83c
000002a0: 4df8 5bbe 99b1 a2bd ef9f c23d c36d e8bd
000002b0: 5f00 883c 44dd fc3d 89b3 f2bd c027 1fbe
000002c0: 8053 8dbe 63c8 f93e c3fe b43c 2344 033e
000002d0: b16f 9a3e bb91 b03a c5b4 0d3e ad74 653e
000002e0: 18fd 3fbe 82b5 13be 6135 0abe 3deb d1be
000002f0: e623 89be 2000 03bd 1a2a 80bc 8e6c cfbe
00000300: f8ed 573e 9aec 75be d35e f7bd f077 223e
00000310: 0c93 ccbd 03ee c0bd f64f d8bd bfae cd3e
00000320: 4c6c 23bb 166a 853e 9f9a e3bd c980 b23e
00000330: 4fc9 1fbe 12d7 723e e4be 66bd 6f8b aebd
00000340: f8df 493d 83c9 8fbe 28c3 2ebc b093 f03b
00000350: 09b8 7bbe f187 b8be c277 c33d 5460 f7bc
00000360: 22e2 cc3e 92cc 0a3e e7b7 d7bb 4114 dc3e
00000370: 52ea cd3d b959 3f3e 11c6 833d 96f5 b2be
00000380: db51 90be e59a 33be 34b8 75bd 98d7 913d
00000390: 152d c4be 8c02 7dbe 7379 113e 456e a93e
000003a0: 8068 e33d b8e4 603d 13fc 94bb bfc7 8a3e
000003b0: 71c2 833d 7a76 f63d 5c17 a8be a82f c8be
000003c0: 2865 bebe 4c49 4b3d da29 9d3d 6e40 52bd
000003d0: 77c2 b1bd 4baa 9ebe dd5d a53e 127e bb3e
000003e0: 7d4e c43d de39 42be 92c1 10be bf9d e53c
000003f0: b2d2 7bbe 48d6 03bd 5664 8cbe a1c4 22be
0.09044764 -0.16392449 0.10794736 -0.0043877442 -0.023775436 -0.15111701 -0.32851186 0.17741893
-0.11191157 -0.43792447 0.17718108 0.15510443 -0.025683241 0.29089627 0.15751168 0.25870568
0.32250324 -0.23239389 0.11447642 0.10612106 -0.048124775 -0.060771167 -0.0823175 -0.16456625
-0.15886675 -0.18905221 -0.08590869 0.06653215 -0.13288519 -0.12147117 0.041166026 0.08879454
0.15364753 -0.013737334 -0.19039927 -0.17342098 0.059729926 0.040646523 -0.23989539 -0.015729088
0.08427011 0.21716318 -0.29085243 0.37187198 0.1333827 0.28689483 0.04833763 0.3958385
0.1708872 -0.256869 -0.28049362 -0.038603928 0.12283242 -0.06042038 -0.13811047 -0.22626759
-0.0641873 -0.09148735 -0.13448429 0.00020060063 -0.05986827 -0.23989247 -0.21292944 0.13877562
-0.10708422 0.01160888 -0.04945989 0.5140655 0.42206898 0.16128512 0.039647046 -0.00034517085
-0.25630045 0.0757092 -0.124071866 -0.015091557 -0.49331588 0.22210656 0.001702015 0.14054987
0.11804875 0.10392486 0.2694262 0.38904798 -0.2267156 -0.16468519 -0.012199923 0.49562073
-0.25537947 0.10508705 -0.021430226 0.17341088 -0.098650225 0.00055671117 -0.11510694 -0.17734574
-0.13062918 0.1948057 0.03464411 0.08386193 0.23876336 -0.1753425 -0.20449434 -0.103351176
0.11023887 0.31447688 0.15861958 -0.32969213 0.31901145 -0.15544477 0.377233 0.011046119
-0.34413224 -0.03749574 0.16753379 -0.10225478 -0.097444154 -0.01564567 0.13983908 -0.23147562
0.010670441 -0.07987905 0.09832651 -0.1869495 -0.15003452 -0.1396937 -0.0389602 -0.016701955
-0.06231661 0.14814661 -0.116894506 0.32144392 -0.022708083 -0.09164903 0.13957278 0.2640468
-0.026739014 0.0045394003 -0.17794551 0.05858474 0.11954733 0.09043261 0.102015644 0.003007866
-0.08423935 -0.33253893 -0.03763383 0.08364411 0.20326915 -0.61434454 -0.11836678 0.31788465
0.2691398 -0.6354125 -0.17434014 -0.23290645 -0.019804573 0.11771249 0.14778653 0.354592
-0.15238313 0.3619052 -0.18714477 -0.11569485 -0.17858304 0.31660444 -0.43998396 0.024512839
-0.21481438 -0.0794403 0.09503161 -0.113490604 0.01660174 0.123468906 -0.1185065 -0.15542507
-0.27602768 0.48785695 0.022094136 0.12818961 0.3016334 0.0013471165 0.1383849 0.2240779
-0.18748891 -0.14424708 -0.13496925 -0.40999785 -0.267852 -0.03198254 -0.015645076 -0.40512508
0.21086872 -0.24016038 -0.12078633 0.15866065 -0.099889845 -0.09420397 -0.10562126 0.40172383
-0.0024936376 0.260575 -0.11113476 0.3486388 -0.15604137 0.23714855 -0.05633439 -0.085226886
0.04928586 -0.2808343 -0.010666646 0.0073418245 -0.24581923 -0.36041215 0.09544326 -0.0301973
0.40016276 0.135546 -0.006583202 0.42984203 0.10054459 0.1868657 0.064342625 -0.34952992
-0.2818745 -0.17539556 -0.059990123 0.07121199 -0.38315645 -0.24708003 0.14206485 0.3309194
0.11103916 0.054905623 -0.004546651 0.2710552 0.06433571 0.12034316 -0.32830322 -0.3909886
-0.3718655 0.04963045 0.07673998 -0.051330976 -0.08679669 -0.30989298 0.32298175 0.36619622
0.09585283 -0.18967387 -0.14136341 0.02802932 -0.24592093 -0.032186776 -0.274203 -0.1589532

single_token_backbone.layers.0.0.bias f4 [64]
00000000: 8491 98be 7a98 7abe f5e4 d63d 439b 713d
00000010: eb57 58be 993d d53c 9e1c 82be 91a7 80be
00000020: abbc b13d a505 153e a26c 613d 8e30 acbd
00000030: 4b88 5dbe 4538 2abe f96a 32bd af68 ec3d
00000040: a192 84bc e600 5bbe 2939 283d c64b 9fbd
00000050: bf8c b73d 2a4f 9fbe b96d ccbe afee e13d
00000060: 3b70 92be 063c e73d 2494 bbbe f945 14bc
00000070: cab3 05bf f176 313d 0b3e 493d 3e73 7d3d
00000080: e946 b8be 4445 e83b 8470 bf3c 2ea4 7ebe
00000090: 3f09 6cbe f362 67be a735 21be d6a8 45be
000000a0: d46a 69be 0275 453d c13f 41bc 0ed1 5fbe
000000b0: 9e40 953d 175a 143d 237b 963d 8a7d f7be
000000c0: 836e 043e 5f73 10be 9caf f33d e788 ee3d
000000d0: b2d4 283c 9567 88bd 58c7 ff3d 1b82 bebc
000000e0: 09a0 663d ec90 89be 7aed b73c a93c 203d
000000f0: 5a11 fdbd 4067 d3bd 0fa4 20be 064f d83d
-0.2979852 -0.24472228 0.10492889 0.05898596 -0.21127288 0.026030349 -0.25412458 -0.25127843
0.08678564 0.14552934 0.05503524 -0.084076986 -0.21634023 -0.16623028 -0.04355905 0.11543404
-0.0161832 -0.21387061 0.041070137 -0.077781245 0.08962392 -0.31115085 -0.39927462 0.110318534
-0.2860125 0.112907454 -0.3663646 -0.009049886 -0.5222746 0.043326322 0.049131434 0.06187748
-0.359916 0.007088335 0.023369081 -0.24867317 -0.23050402 -0.2259634 -0.15743123 -0.19302687
-0.22794658 0.04820729 -0.011794985 -0.21857092 0.072877154 0.03621873 0.07347705 -0.48337966
0.12932782 -0.1410651 0.11898729 0.11647206 0.010304617 -0.06660382 0.12489194 -0.023255398
0.056304965 -0.2686838 0.022452105 0.03912035 -0.12356825 -0.10322428 -0.15687583 0.105619475

single_token_backbone.layers.1.0.weight f4 [64, 64, 3]
00000000: 4fb7 10bf cb2d 8abd 6247 6e3d 6c39 923c
00000010: bac7 4cbe 8dff 7f3d ea46 4abf 67d3 38be
00000020: d005 e03d 7da8 c3be 99f2 c1be a98d 003e
00000030: acb7 8cbe f62d 5bbe eef2 e0be 8ec8 8abd
00000040: 17d2 ea3b dde3 3abe 9e32 4abf b154 e93d
00000050: 8128 29bd ac5e 6dbe f6c0 b1be 7ea3 25bf
00000060: 7fce b2bd e022 243e 46fc db3d 79af 0ebf
00000070: 5026 64bc 37f3 5a3d 9f7b fbbc 276b ccbe
00000080: df7d d63c 83e6 cabe f85a 553d 6e75 34be
00000090: 2c6e 0dbf 7e74 d7be 78e6 a0be 6a42 0b3d
000000a0: f574 b8be 24ce bfbe 010b e53b e1d1 6cbe
000000b0: e0db 093e eabb 89be 6cab d83e 0e25 433e
000000c0: 6e1c bcbe 859a debd 7475 bfbc d2b2 153e
000000d0: 1994 223e 0076 7bbe 03dd 9abe 11a0 39bd
000000e0: 9b66 d0bd a1e2 c53d 5ae8 adbd 48ee 873d
000000f0: b1bc 69bb bb42 86be 0f48 29bd 285d 8c3d
00000100: f04e 3bbe 425c 1e3d d12b 033d 4c7c 023e
00000110: 35e6 193e 637b 08bf 13f1 20bf 888e e2bd
00000120: 95ae b4be b9a6 0fbe 019e 8fbd 5f44 8abd
00000130: 1e6a f8bd 063e 98be f90a 463d 0727 9d3d
00000140: bfe1 b8bb d4fe fd3c 4da3 c23e 6cb5 dc3d
00000150: a067 a0be 30f7 19be c3e5 05bc 2477 0a3e
00000160: f39c c63d 4178 823d 562f 903e eaf2 8d3d
00000170: 79db 2d3b b05f 943d 8d32 913d 4d39 3dbe
00000180: a9c5 803e 3eb3 1a3c 04b1 7d3e a549 14bd
00000190: f73f bdbe 2616 4c3e 2881 c03e 4ebc 893e
000001a0: 671b 5bbd 9aa3 a5be 6df6 41be fb84 95bd
000001b0: 1043 1bbe 59eb 4b3e 8bbf 613e e6af 1bbd
000001c0: 52a5 1abd 3b95 f4bd 2e43 18be 3f00 71be
000001d0: 5050 c5be 28b1 4ebc 3efc 5ebd ca31 a3bc
000001e0: 7699 ec3d 4930 c9bc 52f0 c6be 4bee 983b
000001f0: 6c65 acbc 0ec4 443d f4c8 92be 0929 c13b
00000200: ff70 8b3e 387c a73e e234 6a3e 006a aabe
00000210: 0c0b 22bf 87e8 f9bd b32a 7bbe 7799 83bd
00000220: 7885 5a3e c916 bbbe 8939 623d d82d 87bd
00000230: d21d 843c bbdf 0fbe a082 b4bd 2796 2fbe
00000240: af52 223e 9f41 6bbd 08cb b13d c209 e2bd
00000250: fbc5 d5be 6cfc 54be 25c5 4c3d 0872 573e
00000260: fc26 ccbe 1790 f5bd d3b8 56be a9e1 88bc
00000270: 5739 b1be f497 983e 97b6 05be f671 a8bc
00000280: 519c 3abe ebb6 81bd 70f4 b93e d97f 61be
00000290: 121a 8fbe 769d a0be d4cb ebbd 7935 80bc
000002a0: 8044 c9bd 6505 4cbe 4733 233e 03b6 823d
000002b0: 0480 c1bd 54fc 0b3c 59ba 87be 21cd dcbd
000002c0: ad7e 4bbe f913 7fbd f58f 0f3e 70d9 26be
000002d0: 283a f43d 778e 803e 3a58 13be 9d5e c1bc
000002e0: 691b 27be 3236 72be e200 bbbb b71b e5bd
000002f0: 2d24 20be 2939 17bf 39e6 bfbc 4b88 fb3c
00000300: 4f20 283d 927e 1abf af55 a73d 91eb e73e
00000310: bc8f 2ebf 0570 16be 8e2b 4db9 0057 aa3d
00000320: 4673 82bd db23 22bd ef43 08be f0b7 573d
00000330: 341a fcbd ab6f c13c a273 8f3e be7d 83be
00000340: 5766 943e 0368 5cbe 242e 14be a03b 67bd
00000350: 2845 d03d dc1d 20bf aacc 36be ecc8 c3be
00000360: 2df4 d23e 95a4 5fbd ff99 343d c44e 623e
00000370: 4d86 803e e809 bebc 2964 06bd 7aa1 38be
00000380: a1cd bebe 8bef 1dbf 6710 c3bd 7574 4abe
00000390: 2ae3 42bf 5842 99be 9063 ca3d 2c28 db3d
000003a0: 38d9 16be 0bb9 813d ac23 cfbd 86f0 cd3d
000003b0: e2e0 173e c961 193d 5104 99be 9f22 05be
000003c0: fbc2 c2be 334f 80bd 5f84 02bd 1311 a3bc
000003d0: ba33 b6bd ce99 56bf 313f ba3e f82f 493d
000003e0: 8816 2c3e 2be5 f5be 487c 513d 64b7 f13c
000003f0: c165 5cbe 1b87 913c ea56 a1be 0312 00be
-0.56529707 -0.067470156 0.058173545 0.017849647 -0.19998065 0.06249957 -0.79014456 -0.18049394
0.10938609 -0.38214484 -0.378804 0.12554039 -0.2748388 -0.21404251 -0.4393534 -0.06776534
0.007166158 -0.18250985 -0.78983486 0.11393107 -0.041298393 -0.23180646 -0.3471753 -0.64702594
-0.08730792 0.16028929 0.10741477 -0.557365 -0.01392515 0.053454604 -0.030698596 -0.399255
0.026183067 -0.3962899 0.052088708 -0.17622921 -0.55246234 -0.42081064 -0.31425834 0.033998884
-0.3602673 -0.3746196 0.006989837 -0.23126937 0.13462782 -0.2690118 0.42318285 0.19057104
-0.3674044 -0.10869316 -0.023371436 0.14618996 0.15876807 -0.24556732 -0.30246744 -0.045318667
-0.101758204 0.09662367 -0.08491583 0.066372454 -0.0035665447 -0.26222786 -0.041328486 0.06853706
-0.18291831 0.038662203 0.03202421 0.12742728 0.15029223 -0.53313273 -0.6286785 -0.11062342
-0.35289446 -0.14028443 -0.07012559 -0.06751322 -0.12129615 -0.2973482 0.048350308 0.076734595
-0.0056421454 0.0310053 0.38015214 0.10776791 -0.3132906 -0.15035701 -0.008172455 0.13522011
0.096979044 0.06370593 0.28161114 0.06931098 0.002652852 0.072448134 0.0708972 -0.1847889
0.25150803 0.009442149 0.24774557 -0.036203045 -0.36962864 0.19930324 0.37598538 0.26901478
-0.05349293 -0.3235138 -0.1894166 -0.07300755 -0.15162301 0.19913997 0.22045724 -0.038009547
-0.037755318 -0.11942526 -0.14869377 -0.2353525 -0.38537836 -0.0126154795 -0.054439776 -0.019921202
0.11552708 -0.024559157 -0.38855225 0.0046670786 -0.021044455 0.048038535 -0.2866894 0.0058947843
0.27234647 0.3271196 0.22871736 -0.33283997 -0.63298106 -0.12202554 -0.24528007 -0.064257555
0.21339977 -0.3654082 0.05523065 -0.06600541 0.0161275 -0.1405019 -0.08813977 -0.17147122
0.15851854 -0.057435628 0.08681303 -0.110370174 -0.4175261 -0.20799416 0.0499927 0.21039593
-0.39873493 -0.119903736 -0.20968942 -0.016709166 -0.3461406 0.2980343 -0.13057934 -0.020562153
-0.18223692 -0.06333717 0.36319304 -0.22021426 -0.27949578 -0.31370133 -0.115134865 -0.015650498
-0.098275185 -0.19923933 0.1593753 0.06382372 -0.09448245 0.008544046 -0.2650936 -0.10781313
-0.19872542 -0.062274907 0.14019759 -0.16293883 0.11925155 0.25108692 -0.14389125 -0.023604685
-0.1631905 -0.23653486 -0.0057068923 -0.11186927 -0.156388 -0.59071594 -0.023425208 0.030704638
0.041046437 -0.6034938 0.0817064 0.4529691 -0.6818807 -0.1469117 -0.00019566549 0.08317375
-0.06369643 -0.039584976 -0.13307165 0.05266565 -0.12309685 0.023612818 0.28017908 -0.2568187
0.2898433 -0.21524052 -0.14470726 -0.056453347 0.101694405 -0.6254556 -0.1785151 -0.3823923
0.41201916 -0.054600317 0.044092175 0.22100359 0.25102463 -0.023198083 -0.032810364 -0.18030348
-0.37266257 -0.6169364 -0.09524613 -0.19770987 -0.76127875 -0.2993343 0.09882271 0.107010216
-0.147313 0.06334122 -0.10114226 0.10055642 0.1483188 0.03744677 -0.29886106 -0.13001488
-0.38039383 -0.06265106 -0.03186452 -0.019905603 -0.08896585 -0.8382844 0.36376336 0.049118012
0.1680547 -0.48026404 0.051143914 0.029506393 -0.21523191 0.017764619 -0.31511623 -0.12506871

single_token_backbone.layers.1.0.bias f4 [64]
00000000: 7f6c 25be 4211 9a3c 007c b4be ef05 b1be
00000010: dcc3 e33d b5c3 d33a dbb7 92be b698 b9be
00000020: 8042 983d 6c46 a73d 40a4 c73c c28f 0bbe
00000030: 95a7 a8bd dc5c 5f3d 4274 01be 6363 b93d
00000040: 8e79 98be 0041 febc d496 17bd f06a 97bd
00000050: 2c68 dd3d e2f5 91bd 7831 073d 5b10 ff3d
00000060: 141a 93be 3b66 dc3d 1ac2 c83d e1d6 c93d
00000070: c362 28bd af99 afbc f583 2e3d c30a 0c3e
00000080: 49d2 a1be 833f 673d 5f34 d0bd f61d 9f3d
00000090: 4cf9 e33b f8e5 e4bd f9cc 89bd ea65 ecbe
000000a0: b9af e93d b566 ff3d 8771 c1be 1c78 733c
000000b0: 729b a8be c336 61be ddd2 d83d 6a96 ed3d
000000c0: a095 fa3d 9dfd b73d 86b3 19be d0f1 743d
000000d0: 1259 6c3d df59 96be c480 86be e242 1abd
000000e0: 6694 8fbe 7091 a2be c7cd 8dbd f9ac f1bc
000000f0: 64d6 63be e407 59be a94a 58bd 258a 8e3d
-0.16154669 0.018807057 -0.35250854 -0.3457484 0.111213416 0.0016156348 -0.28655896 -0.36249322
0.07434559 0.08167729 0.024370313 -0.13629058 -0.08235089 0.054531917 -0.12642005 0.0905216
-0.2978024 -0.031036854 -0.037009075 -0.073934436 0.10810885 -0.071269765 0.03300616 0.124542914
-0.28730834 0.107616864 0.09802647 0.09855438 -0.04110981 -0.021435587 0.042606313 0.1367598
-0.31605747 0.056457054 -0.10166239 0.077693865 0.0069572087 -0.111766756 -0.067285486 -0.46171504
0.114104696 0.12470762 -0.37781927 0.014860179 -0.32931095 -0.21993546 0.10587094 0.11600955
0.1223557 0.0898392 -0.15009889 0.059800923 0.05770213 -0.2936544 -0.26270115 -0.03766144
-0.28042907 -0.31751585 -0.069240145 -0.029501425 -0.22249752 -0.21194416 -0.052805576 0.06959943

single_token_backbone.layers.2.0.weight f4 [64, 64, 3]
00000000: a392 28bf 4c08 0bbf f98b 013e f892 053e
00000010: c22d 82be 3e5f 2f3e a030 1bbf 06ab c0be
00000020: 564a 033e 7cdc 483c bf98 89be b608 933e
00000030: 7421 fcbe 250f b5bd 40d3 e5be 774e 0abe
00000040: 5ab5 55be f309 bebe 017f 14bf ee7c a03d
00000050: 1b4f 6cbe 13f4 0dbd edb0 febe 2463 d4be
00000060: 182f 99be dd5b 113d 1d3d ae3e 3e7e 97be
00000070: f25f 64be 7b74 123e 6012 cf3d 9d4e 74be
00000080: 66c7 b0be fce7 35bf 5335 75be 8e59 843e
00000090: 9b34 1cbf 7047 fabd 019b babe 4390 7d3d
000000a0: 2100 3dbe 9dd8 49be f65b c7bd e3c1 09bd
000000b0: 4f1a cd3d f7f9 6ebe 12e2 a1bc 0785 4bbd
000000c0: 86c6 8bbe 1813 903d 6f7b 9ebd f62f a93d
000000d0: 035d dabd 9c35 ccbd d0ea 85be 985a b1be
000000e0: bbca 80be 118e 043e 989f 75be d35a 903d
000000f0: 7a8f bd3c ef00 b9be 9508 bcbd ad58 69be
00000100: e94a 03be 2efa a23d 36f7 d23d 3e08 debc
00000110: 1196 113e 686d dabe 5264 7cbe 3408 a0be
00000120: 4962 b6bd 755d d7bc 3f6c 0ebe b03c d6bd
00000130: 1f66 55be df8a 82bd ca60 3abd 6ed3 c13d
00000140: 5fac 413d 4f98 0fbd 89cb 073e 3fae 3abe
00000150: 11ad a6be 6b83 e9bd 55d5 c63d 785d 833e
00000160: 8741 5d3d c142 433e d5a7 eebb 7562 9a3d
00000170: 6ff0 17be e6d0 303e bde8 48bd 19fd 0fbe
00000180: 4b62 2a3e ed89 3abe d0eb 863e e088 9f3b
00000190: 63c9 a6be ecc5 633d 5bf5 193e 89bf fcbd
000001a0: 812e 43bc dfdb efbe b961 50be 2584 21be
000001b0: 7d3a 04bf e997 a83e 17c7 b13d c200 f5bd
000001c0: 4895 243e deaa 3abd 3934 8dbd 6e00 41be
000001d0: d8e3 22bf 8c1f 83be 13d0 c8bd 4d34 593d
000001e0: 3a82 823d 525b a4bd a1dc 02be 3a7d 1bbe
000001f0: f954 22be db6d 91bc d7d7 203e 564b 62be
00000200: 8f95 3c3e d6a2 05be 119e f63d 08db b4be
00000210: 6a74 0abf e9e7 4dbe 9482 bebe 54d9 b4bd
00000220: c943 97bc fb5e 09bf 4764 c7bd 2b3d a93d
00000230: 49cb e2bd 8818 e03d f12e 08be 67a3 5abe
00000240: f416 22be dea2 90bd 5073 453d b2e5 323e
00000250: 8b07 09bf 91b4 8b3d fb2d 1f3c 934b 32be
00000260: a431 89be 0e19 313e 5a57 3cbe 0a12 4c3d
00000270: d491 babe d0fb 883e 7edd 97be 3999 8fbd
00000280: 811a 8bbe 5c05 873d 41ad 943e 2e7c ecbd
00000290: 825e 6bbe 35c0 023e 058f 3bbe 759e 553d
000002a0: ff06 7ebe f017 b6be 11e8 8e3b b2a8 083e
000002b0: 53b3 68be 9bb3 18be d413 94be 13d4 46be
000002c0: fba2 c33d eb6c 5ebe 6d7e 60bd ebf0 68be
000002d0: 8a76 07be 7adf d53d c083 99bd 6b98 33be
000002e0: fa35 42bd fef0 0ebd f50d dfbe 8bc4 f5bd
000002f0: 4473 96be aee8 ffbe 0d5c 42bd 7647 863d
00000300: 1779 6c3d bd19 4cbe fe96 0a3e 94fd 123c
00000310: dc01 d3be c88a 53be c4e3 23be 6e21 c0bd
00000320: 2bd1 70be 11d8 013e 5891 91be 14ff 03bf
00000330: 341f 5d3d 09b9 98bd 6ccd b13d 146d 63be
00000340: 073c d33a 69c1 cf3e 38ec c9be aca1 b3bd
00000350: 37dd 6c3d a492 b13c 4f0e f93d 07eb e7bd
00000360: a682 1f3e a8a8 0cbe 250c c5be 314f efbd
00000370: 0d81 c63c 1dd8 b23d 7986 dabb 49ba 08bf
00000380: 97b7 c1be 967c d6be f9fc 23be e53b 70be
00000390: 21a1 8cbe f29f 04bf 6344 c1be 56fc adbd
000003a0: 8dfc a5bd 5c49 e6bd 851d 8bbd 2e56 633d
000003b0: 3339 c2bc 9721 a2bd ef5a 913d 324c c13d
000003c0: 76c7 20be 8833 febd ebdf 01bf 4942 ecbd
000003d0: 3e6c 0a3b 8fd6 a2be c3ae d43d 2cbf 89bd
000003e0: a560 f33d eacd 81be 63c9 3ebe dcae ddbd
000003f0: c475 933d 354c bfbe db0a c03d 89b6 70bd
-0.6584875 -0.54309535 0.12651052 0.13044345 -0.25425535 0.17126176 -0.6062107 -0.3763048
0.12821326 0.012259599 -0.2687435 0.28717583 -0.49244273 -0.08840779 -0.44887733 -0.13506494
-0.20869961 -0.37116966 -0.5800629 0.078363284 -0.23077051 -0.034656595 -0.4974436 -0.41481888
-0.29918742 0.035488 0.34031 -0.29588503 -0.22302225 0.14302246 0.10110927 -0.23858114
-0.3452713 -0.71057105 -0.23946123 0.25849575 -0.6101777 -0.12220657 -0.36446384 0.061905157
-0.1845708 -0.19711538 -0.09734337 -0.03363217 0.100147836 -0.23337542 -0.019761119 -0.04968741
-0.272999 0.07034892 -0.07738387 0.08261101 -0.10662272 -0.09971163 -0.2615571 -0.3463943
-0.2515467 0.12944819 -0.23986661 0.07048573 0.023139704 -0.36133525 -0.091813244 -0.22787733
-0.12821545 0.07957874 0.10301058 -0.02710354 0.14217402 -0.42661595 -0.24647644 -0.31256258
-0.08905465 -0.026289681 -0.1390848 -0.10460794 -0.20839737 -0.06374144 -0.04550246 0.09464155
0.047283527 -0.035057362 0.13261236 -0.18230532 -0.32553914 -0.11402019 0.097086586 0.25657248
0.05401757 0.19068433 -0.0072831907 0.075383104 -0.14837812 0.17267188 -0.04905008 -0.14061393
0.16639058 -0.18216677 0.26351786 0.0048686117 -0.3257552 0.055608675 0.15035002 -0.1234122
-0.011912943 -0.46847436 -0.20349778 -0.15773065 -0.51651746 0.32928398 0.086805515 -0.11963035
0.16072571 -0.045573108 -0.06894726 -0.1884782 -0.6362891 -0.25610006 -0.09805312 0.053028394
0.06372495 -0.080252305 -0.12779476 -0.15184489 -0.15852727 -0.017752578 0.15707336 -0.22099051
0.18416427 -0.13050398 0.120418675 -0.35323358 -0.54083884 -0.20107998 -0.37208998 -0.088305146
-0.01846494 -0.53660554 -0.09735923 0.0826362 -0.1107393 0.10942179 -0.13299157 -0.21351396
-0.15829068 -0.070623145 0.048205674 0.17470434 -0.53527135 0.0682155 0.009715552 -0.17411642
-0.26795685 0.17294714 -0.18392697 0.04982189 -0.36439383 0.26754618 -0.29661173 -0.07011647
-0.27168658 0.06592819 0.29038432 -0.11547123 -0.2298527 0.12768634 -0.18316276 0.05215307
-0.24807356 -0.35565138 0.0043611606 0.13345602 -0.22724657 -0.14912264 -0.28921378 -0.19416837
0.095525704 -0.21721236 -0.05480807 -0.22748153 -0.13228813 0.104430154 -0.074958324 -0.17538612
-0.047414757 -0.034897797 -0.43565336 -0.12000378 -0.29384816 -0.49982208 -0.047451068 0.06556599
0.057732668 -0.19931693 0.13534161 0.008971591 -0.41212356 -0.2065841 -0.16004854 -0.09381376
-0.23517291 0.12680079 -0.284312 -0.51561093 0.053984836 -0.07457168 0.08681759 -0.22209579
0.0016115912 0.40577248 -0.39438033 -0.08771071 0.057828154 0.021676369 0.12160932 -0.11324125
0.15577182 -0.13736212 -0.38485828 -0.116850264 0.024231458 0.087326266 -0.0066688624 -0.5340925
-0.3783538 -0.41891927 -0.1601447 -0.23460348 -0.27466682 -0.5180656 -0.37747487 -0.08495395
-0.08104811 -0.11244461 -0.0679274 0.05550211 -0.023708915 -0.07916563 0.07097422 0.09438361
-0.15701088 -0.124121726 -0.50732297 -0.115360804 0.0021121646 -0.3180432 0.10384896 -0.06725916
0.11883668 -0.25352412 -0.1863151 -0.108243674 0.072001964 -0.3736283 0.093770705 -0.05876783

single_token_backbone.layers.2.0.bias f4 [64]
00000000: 2e70 ccbd 6edf dfbc a8ad d23c 536b a8be
00000010: e312 c4bc 6584 053d 8a2a 01be aa12 9cbe
00000020: c8fe 943c 5516 a9be 2d12 663d dbf8 5e3d
00000030: bfb3 03bd 3878 723d 49ce 28bc 43d0 11bf
00000040: 5332 a5bd 5a95 d5be 0ef8 4ebd 3300 d7be
00000050: 17ec 41be 8fa9 a8bd b96c 8fbe 7de5 133d
00000060: 5b21 dc3d 6d84 1b3d 373b 35be e9e6 673c
00000070: cb14 af3d 0818 a13c ce9a 0dbe 3833 953d
00000080: 2669 2b3d 9ef1 9bbe 7110 73be 49df fb3d
00000090: 1b79 0abf 1bb0 19be 2e1b 45be cd4d a0be
000000a0: 3f91 87bd c315 00be e7cf aa3d 2458 bfbd
000000b0: 7ef0 4cbd c898 6ebe 4f8f 2c3d 7185 3e3d
000000c0: ec6b f43d ee4a d53c 6d6f ca3d 60d7 323d
000000d0: cede 993d 9db6 c5bc 6400 8a3c 9787 b73c
000000e0: 774a d9bc c2a3 663d bbfd 6ebd 3acb 84be
000000f0: b70e 21bb 0c5d a0bd 0d40 4bbe 8bb0 013e
-0.09982334 -0.02732822 0.025717571 -0.32894382 -0.023934787 0.032596964 -0.12613884 -0.3048299
0.018187895 -0.3302485 0.056169678 0.054436546 -0.03215384 0.05919668 -0.010303088 -0.5695841
-0.08066239 -0.4171551 -0.050529532 -0.4199234 -0.18937717 -0.08235466 -0.28012636 0.03610753
0.107485496 0.037968088 -0.1769837 0.014154174 0.08548888 0.01966478 -0.13828585 0.0728516
0.041848324 -0.30457777 -0.2373674 0.12298448 -0.5409104 -0.15008585 -0.1924865 -0.31309357
-0.066195 -0.12508301 0.083404355 -0.09342983 -0.05003404 -0.23300469 0.042128857 0.04651398
0.11934647 0.026036706 0.09884534 0.04366243 0.075132 -0.024134928 0.01684589 0.022403521
-0.026524765 0.056308515 -0.058347445 -0.259363 -0.002457542 -0.07830247 -0.19848652 0.12665002

context_backbone.layers.0.0.weight f4 [64, 64, 3]
00000000: 72b1 4bbb 18d6 34bd 20b7 673d 7316 52bd
00000010: 4283 5d3b dd13 2b3d f5c9 9ebc ea24 3c3c
00000020: a9e5 893c e64f 24bd 6cda 12bd 1c7c 3dbd
00000030: ba4b c8bd 6afa 1c3d 3d1e ee3c ad9b 043c
00000040: ae53 0abb e8b1 153d 5c96 ed3c 2e0e 6c3d
00000050: 7069 3a3d 8acc ac3d cca2 82bd c2a5 00be
00000060: 69cc a1bb c148 c73c 3c15 59bd b614 26bb
00000070: 1c04 d13c 1918 083d 028a 70bc 7cdb 013c
00000080: ad3e 573d 9dab 0d3c 2774 a5bd 8619 243d
00000090: 7303 8dbc 782a a9bd 5d65 2cbd 62b0 3abd
000000a0: 6ed2 97bd 70cc 9cbc c1d7 db3c 6363 e8bc
000000b0: 61ab aabd da21 57bd 09e9 3b3c 428a 5cba
000000c0: ecfc b33c 1104 3abd d9fa d6ba 9fa2 a5bd
000000d0: 4466 04bd 92a0 3e3d d007 cbbd 7663 913b
000000e0: dbc0 aabc f3e2 9eba 5382 e9bc 6d21 70bb
000000f0: b67f 29bd ace2 c93a 9bac adbb c1e5 4abd
00000100: b2cb 663d 8e31 1bbe 96c8 623c 56c8 c23c
00000110: 3208 013d f01b 7cbd a00e 67bd 79c2 9ebd
00000120: 36e7 913c 9966 9abc e309 fbba 5a2f 393c
00000130: a33c 8b3c 1fe3 15bc 928b 033d 3ff5 91bc
00000140: 6580 903c 69b7 62bc ea91 45bc ec67 23bd
00000150: 764c b4bd 7afe abbb 9a24 8f3c bad4 4d3d
00000160: 64d3 733d 1e16 4fbd 32f4 84bd 6f39 b4bb
00000170: eb52 24bd 22b2 f8bc 0e37 2fbd beaf 3bbd
00000180: 3611 043d 4d2c b9bd 341a 9ebd 00d2 23bc
00000190: 00c2 153d fb17 5e3c 207e df3c e4ff 8d3c
000001a0: 8a6b 15bd 4709 58bd a788 8d3c 148c 58bd
000001b0: 6a95 863c 10ea 7cbd f951 1d3c e7da ec3b
000001c0: 8605 debc d79d 5ab9 4362 40bd 0d2f 9cbd
000001d0: 8447 68bd be7c 76bd a657 9a3b f0db 5f3d
000001e0: b909 18bd 0a08 c3bd 24b8 26bd aa7e 013d
000001f0: eb37 523c f1d3 9ebd 2e7c b8bd 07a6 3a3d
00000200: 613f 2fbd 4413 25bc 314c d43c df36 e5bb
00000210: 4ce9 383c 1048 03bd 132a 533d 4f6c a33d
00000220: 9c9c b13c 0ad2 00be 0155 12bd b2c1 8d3d
00000230: a0c2 a83c ea6b 1cbd 86c6 45bc 4d01 cbbc
00000240: 1d4b 1a3d fecf 77bd 8b3d 8dbd b0bb 9a3c
00000250: addf 083d fe4d 62bc dff0 283d c8bb 143d
00000260: e1dc 8d3b c578 3d3d aa90 fcbc 20bc 18bd
00000270: 8a48 ac3c dd97 9cbd abcb 313d 8c86 12bd
00000280: 28cb 90bc f5f6 01bd 216d b6bd 2eef f03b
00000290: d10a 31bd 626a b33c 1d91 21bd 458a 383d
000002a0: c87a 8fbd cf4f 03bd c08a 9ebd bbef fabc
000002b0: 78b8 57bd cf88 57bd 4c21 203d 377e a2bc
000002c0: 0c32 ccbc bbde a93d 6d06 70bd b531 563b
000002d0: 44af 1dbd a80f 66bb 8ae1 9ebd 6463 55bd
000002e0: cab2 44ba 51e7 733d 9207 30bc 78db afbc
000002f0: 99be 7ebc 1cf1 d23b 47ea e23c ca3a f6bc
00000300: 7e3d 8b3d b294 a4bd c988 1e3e 364f b63e
00000310: 2531 8a3d 0a35 fb3d c8c7 d03d 7afe 8e3d
00000320: 53a5 3bbe 108f 403f 6b66 f73e 4575 cc3d
00000330: e83a 53be e399 bcbe a2b9 743e c9e1 10bf
00000340: 8161 98be 93c4 0d3d 8192 873e 8389 c93d
00000350: dad4 c93d fa19 45be 5e4e c4bd 4646 88be
00000360: b033 2fbe 2f85 b2be a554 193e 6344 4ebf
00000370: 0c35 d3bd 60dc 8a3d 0446 02be 60c0 65be
00000380: faca a43e 585d 3cbb 69c7 02be ffcd 82be
00000390: 40ea b7bd 14c8 433e cbc3 b9bd fead e5be
000003a0: b627 aabe b42a 48bf bd9f f6be eae4 163e
000003b0: d46c a03e 0e88 95bd 5c12 283e 9c3d 73be
000003c0: c36e 88bc aaab d5bd 9c4b 1abd 9da2 a33d
000003d0: 303c 90be c7fa 623b 2879 85be 47ee a8be
000003e0: e59d 1dbc b8aa babe 4b6d 2d3e 0b3b 08bf
000003f0: 4ce2 55be 232d cdbd c6b5 9bbe b001 f3bd
-0.0031081107 -0.04414949 0.056571126 -0.05129094 0.003380016 0.04176699 -0.01938341 0.01148341
0.016833143 -0.04011526 -0.035852835 -0.046260938 -0.09780069 0.03832475 0.029067153 0.008093757
-0.0021107006 0.036546618 0.029002361 0.05763071 0.04551071 0.0843745 -0.06378707 -0.12563232
-0.0049376977 0.024326684 -0.052998766 -0.0025341935 0.025514655 0.033226106 -0.014681341 0.007925864
0.052550007 0.008646873 -0.08078795 0.040063404 -0.017213559 -0.082600534 -0.042088855 -0.045578368
-0.07413183 -0.019140452 0.026836278 -0.028367704 -0.08333469 -0.052522518 0.011469134 -0.0008412936
0.021971188 -0.045414034 -0.0016401663 -0.08087658 -0.03232409 0.04653985 -0.099135995 0.0044369055
-0.020843914 -0.001212208 -0.028504526 -0.0036641017 -0.04138156 0.0015402636 -0.005300117 -0.049535517
0.056346603 -0.15155622 0.013841769 0.023777168 0.031501956 -0.06155008 -0.05641043 -0.077519365
0.017810445 -0.01884775 -0.0019152727 0.011302793 0.016996687 -0.009148388 0.032115526 -0.017817138
0.017639348 -0.013837674 -0.012058714 -0.03989403 -0.08803646 -0.005248842 0.017473508 0.0502517
0.05952777 -0.050558202 -0.06491889 -0.0055000107 -0.04011814 -0.030358378 -0.042777114 -0.045821898
0.032242976 -0.09041653 -0.077198416 -0.009998798 0.036561966 0.013555522 0.02728182 0.017333932
-0.03647951 -0.052743223 0.017277075 -0.052867964 0.016428668 -0.061746657 0.009602063 0.0072282436
-0.027102243 -0.000208489 -0.04696871 -0.07626162 -0.056708828 -0.060177557 0.0047101555 0.054653108
-0.037118647 -0.09523018 -0.040702954 0.031614937 0.012830715 -0.07755268 -0.090080604 0.045568492
-0.042785052 -0.010075394 0.025915237 -0.0069950665 0.011286091 -0.032051146 0.051553797 0.079796426
0.021681122 -0.12580124 -0.035725597 0.0692171 0.020600617 -0.038188852 -0.012071257 -0.024780894
0.03766929 -0.06050109 -0.06896504 0.018888324 0.03341644 -0.01381254 0.041245338 0.036311895
0.0043293093 0.046257753 -0.0308307 -0.037288785 0.021030683 -0.07646153 0.043407124 -0.035772845
-0.017674997 -0.031729657 -0.089075334 0.007352731 -0.043223206 0.021901313 -0.03944503 0.04505374
-0.070058405 -0.032058533 -0.07741308 -0.03063189 -0.052666157 -0.052620705 0.039094254 -0.019835575
-0.024926208 0.082944356 -0.058599878 0.0032683436 -0.038497224 -0.0035104547 -0.07757862 -0.05209674
-0.0007503448 0.059546772 -0.010743992 -0.021466956 -0.015548372 0.006437434 0.027699603 -0.03005733
0.06798838 -0.08036174 0.15481867 0.35607308 0.06747655 0.12265976 0.10194355 0.06982131
-0.18324785 0.75218296 0.48320326 0.09983305 -0.2062794 -0.36836156 0.23898938 -0.5659452
-0.2976189 0.034611296 0.2647896 0.098406814 0.09855051 -0.1924819 -0.0958526 -0.26616114
-0.17109561 -0.34867236 0.14973696 -0.805731 -0.10312852 0.067803144 -0.12722021 -0.22436666
0.3218611 -0.002874216 -0.12771381 -0.25547788 -0.089802265 0.19119292 -0.09070548 -0.44859308
-0.33233422 -0.7819016 -0.48168746 0.14735761 0.3133303 -0.07301341 0.16413254 -0.23753971
-0.016654378 -0.10433133 -0.037669763 0.079900004 -0.2817092 0.0034634338 -0.26068997 -0.3299429
-0.0096201645 -0.36458373 0.16936223 -0.5321509 -0.20887107 -0.10018375 -0.3041212 -0.11865556

context_backbone.layers.0.0.bias f4 [64]
00000000: 954f 12bd e917 463d 48b9 1ebd 0a27 fd3c
00000010: 9b71 9cbd 83d1 be3a 9f60 263d 6102 453d
00000020: b82f ce3d 2a30 5bbd 1e24 2ebe 2b88 a63c
00000030: bd2a d03c 8039 74be 58b0 20bc b63c e73d
00000040: ff98 163d 40ea ecbd 95d2 3dbd 2546 78bd
00000050: 2e5f ab3c c87e a8bc 60e8 3cbe fff4 403d
00000060: 2cbb 01bd 3a9d ea3d 4cba e43d 730e 843d
00000070: bd7e e8bb b78a 9f3d 5b69 aabd 5e0c df3c
00000080: 0b33 94bd 0dd1 a43d 4c78 6ebd 90c3 b53d
00000090: 6632 d03d 8899 163d 2a91 f8bd 5014 233d
000000a0: c392 1dbc 2a1b f43c b64b 213d 4414 593d
000000b0: 3836 00bd 70e9 02be 3f6a bc39 687d 003e
000000c0: 3f5a 44bd 7246 b73d b9be cb3d 5abf cebc
000000d0: fdee 863d dba2 abbd c892 0a3c 3f74 bc3d
000000e0: 8d64 b83c 476f 9e3d 2e2d 57bd fab3 c7ba
000000f0: d190 f4bc 16d0 23bd 1e9e f03c 661a c23d
-0.035720427 0.048362646 -0.038750917 0.030902404 -0.07638856 0.0014558289 0.04061949 0.04809797
0.100676954 -0.05351273 -0.17005965 0.020328602 0.025411004 -0.2385006 -0.009807669 0.112908766
0.036767002 -0.11568117 -0.046343405 -0.06061377 0.020919409 -0.020568267 -0.18448019 0.047108646
-0.03167264 0.1145577 0.11168346 0.064480685 -0.0070951865 0.0779013 -0.08320876 0.027227577
-0.07236298 0.08047686 -0.058220193 0.08875191 0.10165863 0.036767513 -0.12137063 0.039814293
-0.00961751 0.02979811 0.039378844 0.052997842 -0.031301707 -0.12784362 0.00035937314 0.12547839
-0.047937628 0.08948983 0.09948487 -0.025237728 0.06588552 -0.083806716 0.008457847 0.0920186
0.022508884 0.07736068 -0.05253332 -0.0015236132 -0.02985421 -0.039993368 0.029372271 0.09477691

context_backbone.layers.1.0.weight f4 [64, 64, 3]
00000000: 09c2 bfbd 5d08 913d c453 23be 872b 21be
00000010: 3d1e 23be 701c 2ebe 6846 09bf 4e1a 75bc
00000020: a9d8 8f3c db6a 903e efdb 55bd e771 173e
00000030: d9f6 adbe ca45 83bd 1cb5 c43d 6138 a7be
00000040: 227a f3bb 6986 10be a165 efbd 2c99 2ebd
00000050: 7c87 d03d de88 07be f0d0 86be 4f18 94be
00000060: a5ab a5be 8af0 d5bd ad1a f5bd fb09 47be
00000070: 9d71 ad3d 724c b5bd 011b 093e d88b b2bd
00000080: 3eca 153e 2486 9d3e 1088 5ebd 06ad 19be
00000090: 3724 1b3f 7fbb ecbe 2da7 05bf 8a9e 133d
000000a0: 2385 20be 1a31 7cbf 0953 173e c151 9cbe
000000b0: 1443 15b9 b8c6 063f 8622 b6bd 9524 fbbd
000000c0: 0560 db3d 62fd bfbd 14b4 933d a02f 23bf
000000d0: fd54 e8bd 9c3e e13d 73cd 0ebf 9feb 07be
000000e0: 7028 0abb bd9a 13bf 2ebf 703d 96a7 963d
000000f0: a6e7 a1bd d622 ebbd 8e0a 4b3d 1fce 9cbe
00000100: cf71 173e 952e 30bf 3a5a b0be fee3 833d
00000110: a255 333c 7e3f 5ebe 4b74 05be fb1a bd3d
00000120: bc75 0dbe eefc b83d bf2b a93d 93dd 56be
00000130: 03ff 62be 5e7b cc3b 16dc 6d3e 562c 35bd
00000140: 7534 89bd f855 d4be e7a1 4fbe b6ff 69be
00000150: e82c cd3c 8c69 933d 87e1 abbd 687f 69be
00000160: f504 3abd 7f23 ed3d 2f0f 39bf 75bd 17be
00000170: 833c 073e fe5e 62be e362 acbd 30c0 9c3d
00000180: 6b3c 013e ff8c 75bd 9e47 043d d9d2 743e
00000190: ab5c 58be 5368 6f3e e60c 7d3d f0c8 d13d
000001a0: c615 24bf bb2c 66bd b4a8 85be 04f7 07be
000001b0: 8b3c 483d 93e3 45be 3475 42be f3e2 b83d
000001c0: 857d 9f3d e534 2b3d e8c8 eebd 63c3 f9bd
000001d0: a433 33be 1722 223e fb61 183e f5f3 36bd
000001e0: ad43 fcbe 9290 9abd f27c 733e 5525 3f3d
000001f0: 9698 94bd 56da aabe e404 2cbe 802a 8cbe
00000200: 32a0 c4be 4d8f 6abe 3faa 983d e3c4 33bd
00000210: 2208 13bf ab2f 7f3c a6d3 943c 09b3 5c3d
00000220: a853 50be c6da a6be a2ad e0be 5b6a 8b3e
00000230: 1dd0 78be e796 58be 1cc9 3fbd 452a a4bd
00000240: b955 2dbe b764 47be 8eaa f03c 0128 3f3d
00000250: e6bf f0bc 88ca fd3e 5b96 6e3e 24fa 513c
00000260: 561f af3e 6d10 86be e784 bb3d e020 88bd
00000270: 2518 52bc 1d59 c1be c719 0abe 80e3 8b3e
00000280: 9054 45bd 5eb3 39be 37e2 63be 1de0 43be
00000290: fe2e 023f 31fa 71be ab4f 5e3d 471e 883e
000002a0: 2f6d 703e 5d59 88be a954 e83d 5acb 88be
000002b0: 1099 f4bc 842e d9bd 3722 fcbd 50e6 3cbc
000002c0: 4dd4 dabe c464 ae3e 03d9 9dbe 8120 c9bd
000002d0: 9ab1 373e 7ab4 903e 5033 9dbe ca4b 2c3e
000002e0: 7308 b8bd fd71 c13d fa8d 383e f54b f9bd
000002f0: 7aea 30be f67a 8bbd 4382 34be 28d6 43be
00000300: 61bf a23d 777d c5bd e331 e8bc 3c52 98bd
00000310: 05f1 18be f359 8bbd 9409 70bb f5d9 24bd
00000320: 8bdc 32bd 08f4 853c 4f3a 8dbc 65f1 b53d
00000330: e12c be3c 8cae b2bd b323 3c3c 2185 a2bd
00000340: c2f1 563b 5ab6 043d 416b 363e 3910 c93c
00000350: c2c8 9abe 24d8 bebd 6080 373d f194 07bd
00000360: 7197 5abd 3fa3 fabc a7f5 053d 9f14 1dbd
00000370: a841 0abe b761 62bd 1366 ca3d 1152 be3c
00000380: 2c2a e1bd 8424 113d be87 1b3d 1c11 2bbd
00000390: cfcc 273d 1010 d83b 1c57 1cbe 523a 66bd
000003a0: dcf0 b1bc fd93 b7bc 4f46 9cbe 3ded 14be
000003b0: f8aa e4bd 9b28 97bc ffcb afbd 4940 e03d
000003c0: 92b5 91bc 7df7 efbd 64b5 86bd d7c3 6cbd
000003d0: f1a5 eebd 4108 543d 4a1e 253d ebe8 e6bd
000003e0: cd75 e33c f254 b5bd 77c7 3bbe 8ea2 babd
000003f0: 8734 1f3d 1bcf ff3c e563 ecbc d50b f53d
-0.09363181 0.07081673 -0.15949923 -0.1573926 -0.15929504 -0.17003036 -0.53623056 -0.014959885
0.017559366 0.28206524 -0.0522117 0.14789544 -0.33977392 -0.064097956 0.09604856 -0.326602
-0.007430331 -0.14113773 -0.11689306 -0.042626545 0.101820916 -0.13235804 -0.26331282 -0.28924796
-0.32357517 -0.1044627 -0.119679786 -0.19437401 0.08468936 -0.088524714 0.13389207 -0.08718079
0.1462793 0.30766404 -0.054328978 -0.1500741 0.60602134 -0.46236798 -0.52208215 0.036039867
-0.15675788 -0.98512423 0.14777769 -0.30531123 -0.00014234736 0.5264697 -0.088933036 -0.12262837
0.10711674 -0.09374501 0.072120816 -0.63744545 -0.11344335 0.1099827 -0.5578224 -0.13273476
-0.0021081232 -0.57657987 0.058776073 0.07356183 -0.079055116 -0.11481254 0.049570613 -0.30626008
0.14789508 -0.6882108 -0.34443837 0.064399704 0.010945709 -0.21703908 -0.13032643 0.09233662
-0.13814443 0.090326175 0.08260297 -0.20982961 -0.22167592 0.0062402925 0.23228487 -0.044231735
-0.066994585 -0.4147184 -0.20276605 -0.22851452 0.025045827 0.07197866 -0.08392625 -0.22802508
-0.045414884 0.11579036 -0.72288793 -0.14818366 0.13206677 -0.22106549 -0.08417299 0.07653844
0.12620704 -0.059948917 0.032294862 0.23908557 -0.211291 0.2337964 0.06177988 0.10243404
-0.64095724 -0.056195002 -0.26105273 -0.13277823 0.048885863 -0.19325094 -0.18990022 0.09027662
0.07787613 0.04179849 -0.116594136 -0.1219547 -0.17500168 0.15833317 0.14881127 -0.04466625
-0.49270383 -0.07547106 0.23778132 0.046666462 -0.07255666 -0.33369702 -0.1679874 -0.27376175
-0.3840347 -0.22906227 0.07454347 -0.043888938 -0.57434285 0.01557533 0.018167328 0.05388168
-0.20344412 -0.32588786 -0.4388247 0.2722958 -0.24298139 -0.21151315 -0.046822652 -0.08015875
-0.16927232 -0.19472013 0.029378202 0.04666901 -0.02938838 0.49568582 0.23299544 0.012815986
0.34203595 -0.26184407 0.091562085 -0.066468954 -0.012823139 -0.377633 -0.13486396 0.27322006
-0.04817635 -0.1813483 -0.22254263 -0.19128461 0.50852954 -0.23630597 0.054275196 0.265856
0.2347915 -0.2663068 0.11344273 -0.26717645 -0.029858142 -0.10604575 -0.123112135 -0.01152952
-0.42740098 0.34061253 -0.3082963 -0.09820653 0.17938843 0.28262693 -0.3070321 0.16825786
-0.089859866 0.0944557 0.1802291 -0.12172691 -0.17276946 -0.06810562 -0.17627816 -0.19124663
0.07946659 -0.09643071 -0.0283441 -0.0743756 -0.14935692 -0.06804266 -0.0036626803 -0.040246923
-0.043667357 0.016351715 -0.017239718 0.08883933 0.02321476 -0.087246984 0.011483121 -0.079355486
0.0032797907 0.032400467 0.17814352 0.024543868 -0.3023129 -0.09318569 0.044800162 -0.033101026
-0.053367082 -0.03059542 0.032704975 -0.038349744 -0.13501608 -0.05526897 0.0988275 0.023232492
-0.10994372 0.035435215 0.03797125 -0.041764364 0.040966805 0.0065937117 -0.15267605 -0.056207962
-0.021721296 -0.022409433 -0.3052239 -0.14543624 -0.11165422 -0.01845198 -0.08583831 0.109497614
-0.017786775 -0.117171265 -0.06577566 -0.057803955 -0.116527446 0.051765684 0.04031209 -0.11274894
0.027766133 -0.08854093 -0.18337809 -0.09113036 0.038868453 0.031226685 -0.028856227 0.119651474

context_backbone.layers.1.0.bias f4 [64]
00000000: 0f01 73bd 9c39 db3d e41a 49bd 36b3 2ebe
00000010: fb2e afbd c499 d43c bc49 ab3c 7334 0d3d
00000020: deec c23d 093a 8fbd 4ca3 333d ecfa 2d3d
00000030: 0b47 91bd 6078 1abd 0bed f93c 862a 013e
00000040: d58d 633d ef69 7c3d 9eb3 f1bd 84ee 623a
00000050: 8298 4c3d 668e ab3c 283e 01bd 5418 743d
00000060: 9d0e b83d 5cb2 ca3d eb13 eb3d 88a9 d0bb
00000070: ac66 ef3d 842f 8c3c 0b06 84bb 0805 c2bc
00000080: c049 823d 2759 5f3b 483c 5abe 99c0 a03d
00000090: 1a5e 0a3d a118 e03d 885d f1bd 7221 40bd
000000a0: 0ef4 913d 4f9d 42bd d2a7 133c ba39 ba3d
000000b0: 4bfa 46be e420 1fbe 6f13 813d fe93 9e3d
000000c0: 72e9 873d de74 543d 7568 8dbb e6e2 9f3d
000000d0: 50e7 cc3c 9191 97bc 8b8d f73c b9a1 1e3d
000000e0: 428d fcbc 7305 9e3d cc16 a33c 6ad1 97bd
000000f0: 0ef0 003c 8934 99bd 7136 abbc 06b2 803c
-0.05932718 0.107043475 -0.04909791 -0.17060551 -0.08553883 0.025952227 0.020909183 0.034473848
0.09517835 -0.06993491 0.043856904 0.042475626 -0.070936285 -0.037712455 0.030508539 0.12613878
0.055555183 0.061624464 -0.118018374 0.00086567574 0.04995013 0.020941924 -0.031553417 0.059593514
0.08987162 0.098973006 0.114784084 -0.006367866 0.11689505 0.017112501 -0.0040290407 -0.02368404
0.06361723 0.0034080239 -0.21312058 0.07849235 0.03378115 0.109421976 -0.11785418 -0.046906896
0.07126628 -0.047513302 0.009012179 0.09093042 -0.19431417 -0.1553989 0.06302535 0.07743071
0.06636323 0.051869266 -0.0043154308 0.07806949 0.025012642 -0.018502029 0.03021886 0.03872845
-0.030829076 0.07715883 0.019908331 -0.074129894 0.0078697335 -0.074807234 -0.020899983 0.015709888
