Different courses/Нейронные сети и обработка текста/stepik-dl-nlp/models/single_token_pos.pth (torch, 193198 bytes, 9 tensors)

char_embeddings.weight f4 [143, 64]
00000000: 0000 0000 0000 0000 0000 0000 0000 0000
00000010: 0000 0000 0000 0000 0000 0000 0000 0000
00000020: 0000 0000 0000 0000 0000 0000 0000 0000
00000030: 0000 0000 0000 0000 0000 0000 0000 0000
00000040: 0000 0000 0000 0000 0000 0000 0000 0000
00000050: 0000 0000 0000 0000 0000 0000 0000 0000
00000060: 0000 0000 0000 0000 0000 0000 0000 0000
00000070: 0000 0000 0000 0000 0000 0000 0000 0000
00000080: 0000 0000 0000 0000 0000 0000 0000 0000
00000090: 0000 0000 0000 0000 0000 0000 0000 0000
000000a0: 0000 0000 0000 0000 0000 0000 0000 0000
000000b0: 0000 0000 0000 0000 0000 0000 0000 0000
000000c0: 0000 0000 0000 0000 0000 0000 0000 0000
000000d0: 0000 0000 0000 0000 0000 0000 0000 0000
000000e0: 0000 0000 0000 0000 0000 0000 0000 0000
000000f0: 0000 0000 0000 0000 0000 0000 0000 0000
00000100: e17a 89be d2d6 1c3f 14fc b03f e8b9 943f
00000110: 9f31 93bf ffa7 0540 4ee0 0dbf 245a ba3e
00000120: 3bda 8ebf 991f 74bf 80d2 41bf 9006 dcbe
00000130: 8089 5ebf dd93 733f 6e71 92be 54ba 173f
00000140: ce61 0a3e 63ee ff3e 5940 64bf f71e eabb
00000150: 7288 c83f fddf 0ebf b5da 613f ce86 553e
00000160: 38ef 2ebf a5fe 3c40 7d22 c8bf 105a c8be
00000170: 665b 3fbf fe9b e4be 350f 9b3d 079e 4f3f
00000180: 3e06 0140 29a3 b9bf 59b0 1d3f fcbf 953f
00000190: 152a 17c0 e046 afbf 8377 59be 7707 1e3f
000001a0: 33cd 4ebe 9a2d 88be 0b45 573f 2271 edbd
000001b0: c36e 703f 68db 48bf 6b35 843f d35c 87bf
000001c0: 237b 013f 59a5 2ec0 a4fd 073f 84c1 33be
000001d0: 2b4a 393f 13b2 f83e a347 b2bf 60c4 7fbd
000001e0: 66e5 20bf 578a 13bf 4fab 8f3f ea5d 59be
000001f0: 4d8c 3c3e c556 d03f 16be 6d3f 82ff e03f
00000200: bb83 22be 541f d23e 7b07 38bf d5e8 013f
00000210: b25b fd3e 5143 833f a885 0f40 bfce 15bf
00000220: 1630 e5bd 12d2 2f3f 2c71 c9be 3a6f a1bf
00000230: ea83 1cbd 7511 76bf 751a 83bd 21a2 5e3e
00000240: bdb0 22bf 34d0 bfbd 8a43 033f 5484 8c3f
00000250: cd45 3c3f fbd7 1d3f 399a 63be 3ee7 4d3e
00000260: 25f5 703e fcae 5dbf 577f f9bf 1196 013f
00000270: ef1c 27bf 7b1f fb3e 1718 9c3e 5181 c03e
00000280: 57a9 8f3f ce7a 3ebf 67bb cf3e 0865 2dbf
00000290: b569 6a3f 0680 83be 41c1 283f a6c4 0d3f
000002a0: b8be 3a3e bed4 9abc 75df bf3d c97e 803e
000002b0: c226 24bf d5a7 b8be eea0 1e3f dc86 06c0
000002c0: fb74 d5be 78a9 833e 0b73 d3bf a829 50bf
000002d0: 8f14 dd3e 227f ae3e d1da f33f 3d9d 633f
000002e0: 50ae b4bf 1ae2 30bf 4231 a73f 56d6 84be
000002f0: cba0 c33e e24d a7bf 36b3 2bbf 60c4 6ebf
00000300: 7727 30bf 184e 423f 59a2 4e3f ee23 1b3d
00000310: 02ac 1d3f 5c5b 7b3f 258c 25bd e21f 643f
00000320: 99da 4cbe ebff 56bf 386c 283f 0688 3a3f
00000330: 29fb e03e 391b 6ebf 9552 943f 8fba 53be
00000340: 2752 8c3f 94ef 323f dc58 463f c112 3b3f
00000350: 6724 9bbf 713f 5c3f a29b 80be fbba 99bf
00000360: 3fd9 bb3f 2328 8f3f bd89 a8be 5daf 863f
00000370: 4c11 c03d 4a6f 0dbf 2374 84bf 2c41 42be
00000380: b659 e6be 7045 a23f a04f c23d 6d17 033f
00000390: c7e7 0ebf 0988 523f a463 1fbf f3e7 9dbf
000003a0: 5c43 5b3e 5cbb 3fbf 8158 56bf 667c 6c3f
000003b0: 036b bebe 436e 533f 4a40 7f3f 780e 1dc0
000003c0: f867 d2bf 7fe7 96bf 0025 55bd 72b9 92bf
000003d0: cad1 c73f 3c02 a9be f322 e93e 2ba6 343e
000003e0: 5858 3fbe d9e0 a83f 0da7 463f ff76 41bf
000003f0: 9340 45bf fd49 65bd 7b90 1940 8ee9 e13d
0.0 0.0 0.0 0.0 0.0 0.0 0.0 0.0
0.0 0.0 0.0 0.0 0.0 0.0 0.0 0.0
0.0 0.0 0.0 0.0 0.0 0.0 0.0 0.0
0.0 0.0 0.0 0.0 0.0 0.0 0.0 0.0
0.0 0.0 0.0 0.0 0.0 0.0 0.0 0.0
0.0 0.0 0.0 0.0 0.0 0.0 0.0 0.0
0.0 0.0 0.0 0.0 0.0 0.0 0.0 0.0
0.0 0.0 0.0 0.0 0.0 0.0 0.0 0.0
-0.26851562 0.6126529 1.3826928 1.1619234 -1.1499518 2.0883787 -0.55420387 0.36396897
-1.1160349 -0.95360714 -0.7571182 -0.42973757 -0.8692856 0.95147496 -0.28602165 0.5926869
0.13513872 0.49986562 -0.89160687 -0.0071448046 1.566664 -0.5581053 0.88224345 0.20852205
-0.6833377 2.9530423 -1.5635525 -0.39131212 -0.7474884 -0.44650263 0.0757126 0.81100506
2.016006 -1.4502918 0.6159721 1.1699214 -2.3619435 -1.3693504 -0.21236996 0.6173014
-0.20195465 -0.2659729 0.84089726 -0.11593844 0.9391901 -0.7845979 1.0328802 -1.0575203
0.50578517 -2.728842 0.531214 -0.17554289 0.72378796 0.4857336 -1.3928112 -0.062443137
-0.62850034 -0.57632965 1.1224154 -0.21227232 0.18412896 1.627648 0.92868173 1.7577975
-0.15870564 0.41039526 -0.71886414 0.507459 0.4948402 1.0254918 2.2425327 -0.58518595
-0.11190812 0.68679917 -0.39344156 -1.2612069 -0.03821174 -0.9612039 -0.06401531 0.21741535
-0.6355093 -0.093658835 0.5127493 1.0977883 0.7354401 0.61657685 -0.222268 0.20107743
0.23531015 -0.8659513 -1.9491986 0.5061961 -0.65278524 0.49047455 0.3048713 0.3759866
1.1223553 -0.74406135 0.40572664 -0.67732286 0.91567546 -0.25683612 0.6591988 0.55378187
0.18236816 -0.018900272 0.09368793 0.2509673 -0.6412164 -0.36065546 0.6196431 -2.1019812
-0.41690812 0.25715232 -1.6519483 -0.8131356 0.43179747 0.3408137 1.9051152 0.889118
-1.4115696 -0.69095004 1.3061907 -0.25944775 0.38208613 -1.3070643 -0.6707033 -0.93268394
-0.6881022 0.7590041 0.8071647 0.037876062 0.6159059 0.9818628 -0.040416855 0.8911115
-0.20005263 -0.8398425 0.6579013 0.72863805 0.4394162 -0.9301029 1.1587702 -0.20676635
1.0962571 0.6989682 0.7747934 0.7307549 -1.2120484 0.86034304 -0.25118738 -1.2010187
1.4675673 1.1184124 -0.32917586 1.0522267 0.09378299 -0.5524794 -1.0347942 -0.18970174
-0.4499032 1.2677441 0.094878435 0.5120762 -0.55822414 0.82238823 -0.62261415 -1.233641
0.21412414 -0.7489526 -0.83728796 0.92377317 -0.37191018 0.8259012 0.9970747 -2.454008
-1.6437979 -1.1789397 -0.05203724 -1.1462843 1.5610898 -0.33009517 0.45534477 0.17641513
-0.18686044 1.3193618 0.7759865 -0.755722 -0.7705166 -0.055978764 2.3994434 0.11030875

backbone.layers.0.0.weight f4 [64, 64, 3]
00000000: ee73 803d 8f2e 153e 337f 59be dc84 13bd
00000010: c459 0a3e 9e70 2ebe c301 b3bd c726 cfbe
00000020: 672a 7dbd 0ebc fbbd 8f8d 903c 6dee 913d
00000030: aa5d e03d 74d5 613d 4b74 39be 87b6 883d
00000040: cc27 a4bc c7a2 34bd b642 723b ccf2 8fbe
00000050: 20a8 00be 9da5 b1bd 8f44 d13c 0cb0 583c
00000060: 890a 1b3d a1aa 7dbd 38c0 8dbe 3ed3 753d
00000070: 5e79 dc3d 5a71 86be d597 8b3d 776a 523e
00000080: 05f2 cebc 9127 0bbd 28e2 78be 6334 2a3f
00000090: 9633 97ba d211 33be 88c7 653e 0919 093e
000000a0: 6c5e ddbd 263c 8a3d cccc 0cbd aeb4 77be
000000b0: 09ea f53d 2698 a8be a77d 603e 7bcb 9cbb
000000c0: 0cd5 d03e d4a9 5dba 4b44 043d b1cb 2ebe
000000d0: 9144 0a3d 8ed0 c03b 6008 81be 96dc c8bc
000000e0: 9ddc 073d b473 35be 6502 a63e 9d6b 78be
000000f0: 68fe 433e 2748 cfbd c13f 12bf 5d7d bfbe
00000100: a833 fcbd 8ab9 e4bc 1196 803e 2d2f bcbe
00000110: 0a4a 9fbd 2821 7ebe 0121 2a3e 7cf8 7d3e
00000120: cec2 f5ba f6bf 8bbe 92a1 be3d 93ea 09bd
00000130: f287 0c3c 6b27 8e3d 4926 463e 37d7 c9bb
00000140: ea9c 8ebd 3cae 323e f0c7 0dbe fff6 943b
00000150: 026b f1bd 668b a1be aa89 8b3e 218b 9abe
00000160: 1cad c83d a0f5 1ebe dc51 6abe 729d c23d
00000170: ace4 3bbe e24f a63d a182 ccbb dc05 8ebe
00000180: 1378 b6be 6a2d 87bd 3f86 7bbe 0f2b d4bd
00000190: ab7b c6bd 8e1c 8c3c dde3 afbb 3c50 f83d
000001a0: 496d 2d3d b0cb e63b 2012 a43d 7fce 68bd
000001b0: 0fa8 033e 8fc1 843c e081 edbe 0d38 04be
000001c0: d1bd afbd 2db9 a13d 2655 643e 3570 7cbc
000001d0: f40d fbba 7ab5 b7bd 4988 41be 0996 78bc
000001e0: 6c19 613e c8ea aebd 85b1 ad3e 1eb4 23bf
000001f0: 4c25 d8be 7463 92be bbeb 5b3d 9a91 57bd
00000200: 5430 5b3d cc10 0cbe c3cb 913d 95f8 8abe
00000210: c778 36be 4459 c3bd 26b0 a0bd 8b29 4bbe
00000220: 8c47 643c 6dfc eebd c1b2 a7bd b490 f2be
00000230: ac7f ebbb 2672 88be 70f6 1a3e f109 253d
00000240: 9777 d6be df8a b8be 6f4b 603e 6537 49be
00000250: 4b7a af3d db25 15be 8739 743d fc04 21be
00000260: 7184 073e 37b2 7ebe da03 023f 20dc 57be
00000270: f6b3 ff3e 9f29 f7be 0cd3 653d 4baf 103f
00000280: 1d3c 833c b893 493d 9e29 53bb 9f3d a53c
00000290: 3bca 25be d1c0 213d 75f5 533d bdc7 d5be
000002a0: 3bfa 8b3e dee7 cc3d 83c8 293e e549 8dbe
000002b0: 7fae a6be 6435 8a3d 923e 5ebd 1f7f 97bd
000002c0: 0a63 d9bd 9cce 4d3e 4d18 1fbe 73a5 5e3d
000002d0: 54b7 c73e 4f54 9b3e 0432 133e 26da 3e3e
000002e0: 1947 ab3e 8019 823e e144 2f3e 92a4 01be
000002f0: c86a 803c 034e 5ebc c8bf 94bd 686f c43d
00000300: 3def 483d 95b8 96bd 838e 0bbe 68b7 a4be
00000310: 15c7 3d3e bb5c 58be 83ed 9cbd 475e d8bd
00000320: 9030 0b3e e488 b13c cfde b63d 0070 203e
00000330: ed55 1abc a17e e5bc 4a1c ca3b e8f5 5fbd
00000340: de2c 173d 91a1 24be 3004 ce3c df62 623c
00000350: 1633 5bbd 44b2 2a3d 995a 393c 7ba2 b6bd
00000360: cdc3 39be 2109 643d c74a 413e 9739 8bbd
00000370: 5f44 043e d93c 303e ec8c 473d c0b7 06bd
00000380: 53ad 383e b832 083e 1b11 72be 6a59 99bc
00000390: 1712 813e 4e6b 14be 8578 a0be 6862 9dbd
000003a0: aa20 223e 0ce7 153e 4856 95be 0de7 51be
000003b0: 5476 84be 6891 1b3e 2a76 713e 1a42 acbe
000003c0: 10db 1b3e 7678 87bd 3bd5 283c 5b35 45be
000003d0: 298a 42be 1d3a 48be e0b7 f1bc eeaf 803e
000003e0: 034d 6f3d 3e31 543d f5c8 a33d c965 b93d
000003f0: 5701 e3be ba87 bcbc 6de7 b83e 3adc 72bd
0.06272112 0.14568542 -0.21239929 -0.036015376 0.13510805 -0.17035148 -0.087405704 -0.40459272
-0.061808016 -0.12291728 0.017645625 0.07125554 0.10955365 0.055135205 -0.18110768 0.06675439
-0.020038508 -0.04410055 0.0036966032 -0.28114927 -0.12564135 -0.08674166 0.025545387 0.013225567
0.037851844 -0.061930303 -0.27685714 0.06001591 0.107653365 -0.26258355 0.06816069 0.20548426
-0.025261888 -0.03397328 -0.24305022 0.66486186 -0.001153576 -0.17487267 0.22439396 0.13388456
-0.10809025 0.06749754 -0.034374997 -0.24190018 0.12007529 -0.3292858 0.21922933 -0.004784999
0.40787542 -0.00084557873 0.03229169 -0.1706989 0.033756796 0.0058842367 -0.25201702 -0.024519246
0.033169378 -0.17719918 0.32423702 -0.24259801 0.19140017 -0.10121184 -0.5712853 -0.37400332
-0.1231454 -0.027920503 0.25114492 -0.36754742 -0.07777794 -0.24817336 0.16614152 0.2480182
-0.0018750073 -0.27294892 0.09308161 -0.033670973 0.008577334 0.06941112 0.19350542 -0.006159689
-0.06963523 0.17449278 -0.13845801 0.004546046 -0.11787988 -0.31551665 0.27253467 -0.30184272
0.09798643 -0.15523386 -0.2288279 0.095026866 -0.1834895 0.08120705 -0.006241158 -0.27738845
-0.35638484 -0.06600459 -0.2456293 -0.10359775 -0.096915565 0.01710346 -0.0053677396 0.121246785
0.04234055 0.0070433244 0.080112696 -0.056837555 0.12857078 0.016205577 -0.4638815 -0.12912007
-0.085811265 0.078966476 0.22298107 -0.015407612 -0.0019153939 -0.08970161 -0.18899645 -0.01517249
0.21982354 -0.08540875 0.339245 -0.6394671 -0.42215955 -0.28591502 0.053691607 -0.05262909
0.053512886 -0.13678282 0.071189426 -0.27142778 -0.1781951 -0.095385104 -0.07846098 -0.19840066
0.013933074 -0.1166924 -0.081883915 -0.47376025 -0.0071868505 -0.26649588 0.15133071 0.040292684
-0.41888115 -0.3604345 0.21903776 -0.19650038 0.085682474 -0.14565222 0.059625175 -0.15724558
0.13234116 -0.24872671 0.50787127 -0.21080065 0.49941987 -0.48273942 0.056109473 0.56517476
0.016019875 0.04921314 -0.003222085 0.020170985 -0.16190426 0.039490525 0.051747758 -0.4175395
0.27339348 0.10005163 0.16580395 -0.2759544 -0.32555005 0.06748465 -0.05425889 -0.07397293
-0.10614593 0.20098346 -0.15536614 0.054357003 0.39007056 0.3033776 0.14374548 0.18637905
0.3345268 0.2541008 0.17116119 -0.12660435 0.015675917 -0.013568404 -0.07263142 0.095915616
0.04905628 -0.07359425 -0.13628583 -0.32171178 0.18532975 -0.21129124 -0.07662489 -0.10564857
0.13592744 0.02167172 0.08929216 0.15667725 -0.0094199 -0.028014483 0.006167923 -0.054677874
0.036908023 -0.16077258 0.025148481 0.013817518 -0.053515516 0.041673914 0.011313104 -0.089177094
-0.18141098 0.05567277 0.18876182 -0.06798094 0.12916707 0.17210712 0.048718378 -0.03289008
0.18034868 0.13300598 -0.23639338 -0.018719394 0.25209114 -0.14494058 -0.3134195 -0.07684785
0.15832773 0.14638919 -0.2916739 -0.20498295 -0.25871527 0.15192187 0.23580232 -0.3364418
0.15220284 -0.06614773 0.010304744 -0.19258635 -0.18998016 -0.19553418 -0.029506624 0.25134224
0.058423053 0.051804774 0.07997314 0.09052617 -0.4433696 -0.023013938 0.36114064 -0.059292056

backbone.layers.0.0.bias f4 [64]
00000000: 535d 883d de22 ddbc 47cf d6bc 1367 ac3d
00000010: 578a 683d 75f9 53be 980a 933d ce46 34bd
00000020: cbd0 42bc 154a 323d 5507 79be d058 733d
00000030: 88f9 acbe 314b ac3d e6b5 fabe 3a61 75be
00000040: 6b85 d33d cef0 34be ea64 b13d f3c8 a6bd
00000050: b78e 003e cb29 23be cf98 c43d 21da 04bd
00000060: 7c29 f43d a762 edbe 283c 0f3d d98f 69be
00000070: a88e bd3d 1cb9 fc3d b2a3 003d d5f1 45be
00000080: fe45 eabb 67f2 36be 5fb3 cd3c 0bf2 a83d
00000090: e4de 243d fce3 b13c e022 943c 5379 33bd
000000a0: a628 683d 8f60 c03d bc12 ed3d 136a dd3d
000000b0: f96e 9c3d 09b9 50bd a08f c7bc 9161 38be
000000c0: fdb4 cc3d f4d3 a1bc 9c52 c63d 95cb 65be
000000d0: 3600 93be 5c56 cebd 31fc adbe 307a fdbd
000000e0: 36a3 73be 999b c73d 8018 0bbd d7b0 f13d
000000f0: 5bfe a53d efc2 7ebe 394c 81bc a64d 9dbe
0.06658425 -0.026994165 -0.026221884 0.08418097 0.056772556 -0.20700629 0.07179755 -0.044012837
-0.0118906 0.04352768 -0.24319203 0.05941087 -0.33784127 0.08412779 -0.48966902 -0.2396287
0.10328182 -0.17669985 0.08661826 -0.08143797 0.12554441 -0.15933912 0.095994584 -0.032434586
0.11921975 -0.46364328 0.03496948 -0.2280878 0.09255725 0.12339994 0.031406112 -0.19330533
-0.007149457 -0.17865907 0.025109945 0.08249291 0.040251628 0.021715157 0.018083036 -0.043816876
0.05667939 0.09393417 0.11575839 0.10811248 0.07638354 -0.050957713 -0.024360478 -0.18005969
0.09995458 -0.019754387 0.09683725 -0.22440942 -0.28711098 -0.100750655 -0.3398147 -0.12376821
-0.23792729 0.09746475 -0.033958912 0.11801308 0.08105155 -0.24879049 -0.015783416 -0.30723304

backbone.layers.1.0.weight f4 [64, 64, 3]
00000000: 273c e0bc 8c12 f4be e965 fcbd 7e60 19bd
00000010: 0120 c2bc f944 693c 43cc 51bd 57ab 23be
00000020: 3bfd 003e 4fe8 10bd a08e 1bbe b46c 0ebc
00000030: fc1b 953d 6477 02be a389 87be d42a 05bd
00000040: 38f6 8dbb 3f29 dcbd f7bd 16be eb84 d0be
00000050: 58c6 95bd 9252 cbbe 49c4 afbe de82 a3bd
00000060: f37d 3c3e fb19 5abd 243b 1bbc dacf b23d
00000070: ec66 cdbd f7fc 6ebe 2d8a 21be b145 103e
00000080: 890c c0be a589 dcbc 977d 15bf ef45 e13d
00000090: c440 f13d d553 a5bd bf47 943d 59dc cf3e
000000a0: aa09 b6bb 65b1 4e3e 6884 533e 3829 09be
000000b0: 237a 84bd d4d9 86bd bbd0 8c3c 1d3d ee3b
000000c0: f9ec b53e dc0b 40be 095e d9bd 0a87 81be
000000d0: 470a d03d 896a 2ebf 5bcd ddbe 5196 9f3c
000000e0: 67c1 8dbe 358f 3ebe 19a0 5c3d 5377 f83c
000000f0: 3bd5 db3d 2fd6 c23d 0153 94be a848 33be
00000100: 4607 7ebd 32f7 803d 70e3 a13e e533 44be
00000110: 8eb6 623e 3dc0 ff3b 4c5e a7bd 126f 17be
00000120: 4037 32be 8b07 17be 10b3 0bbe a121 ecbe
00000130: 5863 5d3e e2c9 863e cc45 11be 013b da3d
00000140: 9538 823e 9cd8 133e 957a 85be e654 2cbd
00000150: 6e1a ccbd 29f3 87be b31c 8f3d d9fa 65be
00000160: e147 d1b9 6635 bc3d 6bf4 0ebe bd14 d93d
00000170: ea36 b33e 5046 853e b48b 1e3e 8320 abbe
00000180: 18dd 64bd 6041 f23c 2122 73be fcdc e8be
00000190: 8ce4 1fbe 73ef a03d a961 b2be c05a fdbd
000001a0: 838f 4fbe 6643 f63e 0c06 24be d5ff c93d
000001b0: 4994 b3bd e973 793d 33bb cbbc bcd8 ac3c
000001c0: b251 99be cff1 c9bd da50 543e 89c8 84be
000001d0: c669 1e3e c878 9fbe b660 97bd 70e3 443d
000001e0: 92a1 143e cec6 7dbe ebe1 cbbd f539 7bbe
000001f0: 03ac d9be 8ab3 d8bd f905 d13d 8556 18be
00000200: e0a0 1ebc 66c7 2b3d 5aaf bfbe 1f29 b03c
00000210: 31c9 3bbe c1e1 81be 3276 75be 5591 e8bd
00000220: b187 2e3b f082 99bc fb27 70be 1bf1 aebe
00000230: d78c 60be a6b8 3ebe e080 853e dad2 4e3e
00000240: 35c8 96be c04d ffbe c11e f93e 38c7 3fbd
00000250: 748c fabd 3ae6 01bf 81ed 19bd 1416 76bd
00000260: 0c43 033e 8da0 c1be 93a1 1f3e de78 1abe
00000270: ea4d 233e d767 b5be bfdb b7be d4ab 753e
00000280: 6f37 2cbe cafe 313b 9da3 f73d fcd6 3bbd
00000290: 845e 4abd d264 eebd fc1f 58be 376a 643c
000002a0: e25f ea3d 13f5 cd3d 633d 0f3e f807 e6be
000002b0: d0f1 0abf 3265 a5bd 67c9 d13c 9479 61be
000002c0: 0ae3 803a fc62 9e3d 8178 43be 0832 05be
000002d0: 8692 33bd 7ed8 c53d 1cdf 7bbe 7d59 01be
000002e0: bf46 03bd 915c fc3d c65a 5c3e 3ddc 7abe
000002f0: 5a86 483e f02f 81bd a15e 123d 4983 033e
00000300: 4cc8 ccbe 917c a1bd dc3c 97bd 462e 9dbe
00000310: a7a1 0fbf 92a0 303e 8a56 eebd ea41 64be
00000320: d6bb 20bd 7818 23be f593 4c3e c4a4 aa3e
00000330: 1013 e7bc fed5 723e a91b 9a3c 4ba6 1bbf
00000340: 95ab 3abd ae03 47bd 51b3 b1bd 8373 963c
00000350: dd33 8d3d 0171 f2bd cdf9 853c 5fb0 0e3e
00000360: 17b9 81bd c997 2ebd 76ab 81bd 1562 abbe
00000370: 95f7 533d 609e 5ebd 4671 b2be 558e 94be
00000380: 3863 8fbe 3d0c 15bc ede6 10bf c9a9 76be
00000390: e172 303e 85ab d13d 3784 c93d c194 a2bc
000003a0: ce1c e1be e516 ee3c 940b b8be 1e74 55be
000003b0: 9d84 b9bd 8e66 5a3d a9de ffbd 2152 4ebe
000003c0: 8bc6 023d 953c 0abd b65d b23d e877 bcbc
000003d0: 7e4c bf3d cdc1 f5bd 445f 52be b7a1 56bd
000003e0: c776 8039 1169 263e ecfc b1bd e838 c6bd
000003f0: aaca 21be eb5c a3bd 5c70 243d ffb8 04be
-0.027372433 -0.476704 -0.12324125 -0.037445538 -0.023696901 0.014237636 -0.05122019 -0.1598333
0.125966 -0.035377797 -0.15191126 -0.008692909 0.07280728 -0.12740856 -0.26472196 -0.032511547
-0.00433233 -0.107500546 -0.14720903 -0.40726408 -0.07313222 -0.39711434 -0.3432944 -0.07983945
0.18407421 -0.053247433 -0.009474549 0.08731051 -0.100293964 -0.23338686 -0.15775366 0.14089085
-0.37509564 -0.026921103 -0.5839476 0.10999667 0.11779931 -0.0807263 0.07240247 0.405978
-0.0055553513 0.20184858 0.20655978 -0.1339463 -0.06468608 -0.06584516 0.017189374 0.007270469
0.35532358 -0.18754524 -0.10613639 -0.2529834 0.1015821 -0.6813131 -0.43320736 0.019480856
-0.27686617 -0.18609317 0.05386362 0.030330336 0.1073403 0.095135085 -0.28969577 -0.17508185
-0.062018655 0.06297149 0.31618834 -0.19160421 0.22139952 0.007804899 -0.081722826 -0.14788464
-0.17403889 -0.14748971 -0.13642526 -0.46119407 0.21619928 0.263259 -0.14186782 0.10655785
0.25433794 0.14438099 -0.26070085 -0.042073153 -0.099659786 -0.26552704 0.06987896 -0.22458972
-0.0003991714 0.091898724 -0.13960426 0.10599659 0.35002834 0.26030207 0.1548298 -0.33423242
-0.055874914 0.029572189 -0.23743488 -0.45481098 -0.15614527 0.07858171 -0.34840134 -0.12370825
-0.20269589 0.48098296 -0.16017932 0.09863249 -0.087685175 0.060901556 -0.024869537 0.02109944
-0.2994514 -0.098605745 0.20733967 -0.25934246 0.15470037 -0.31146836 -0.07391493 0.048068464
0.14514759 -0.24782869 -0.099552 -0.24533828 -0.42514047 -0.10581119 0.10206217 -0.14876755
-0.00968191 0.041938208 -0.3743847 0.021503983 -0.18338467 -0.2536755 -0.23970869 -0.11355845
0.0026631171 -0.018739194 -0.23452751 -0.34168324 -0.21928726 -0.18625125 0.26074886 0.20197621
-0.2944962 -0.49864006 0.48656276 -0.04682085 -0.122338206 -0.5074192 -0.037580017 -0.06007965
0.12818545 -0.37817803 0.1558898 -0.1508517 0.1594769 -0.35430786 -0.3590984 0.23991328
-0.16818021 0.0027159923 0.12091754 -0.045859322 -0.049406543 -0.11640324 -0.21105951 0.013941339
0.114440694 0.1005651 0.13988261 -0.44927955 -0.54275227 -0.08075942 0.025608731 -0.22019035
0.0009833288 0.077337235 -0.19088937 -0.13007367 -0.043840908 0.09660433 -0.24596828 -0.12631793
-0.03204989 0.12322343 0.21519002 -0.24498077 0.19582501 -0.063079715 0.035734776 0.1284305
-0.39996564 -0.07885087 -0.07384655 -0.30699366 -0.56106037 0.17248753 -0.116376 -0.22290769
-0.039241634 -0.15927303 0.19978316 0.3332883 -0.028207332 0.23714444 0.018812018 -0.6080062
-0.04557379 -0.048587494 -0.0867678 0.018365627 0.06894658 -0.1183796 0.016354466 0.13934468
-0.06334131 -0.042625222 -0.06331532 -0.33473268 0.051749784 -0.054350257 -0.34852046 -0.2901484
-0.28005385 -0.009097156 -0.56602365 -0.24088205 0.17231323 0.10237793 0.09839671 -0.019846322
-0.4396729 0.029063651 -0.35946333 -0.20845076 -0.09058497 0.05332046 -0.12493641 -0.20148517
0.031927627 -0.03374918 0.0870928 -0.023006395 0.093407616 -0.11999855 -0.20544153 -0.052400317
0.00024502559 0.16251017 -0.08690819 -0.09678823 -0.15799966 -0.07976707 0.040146217 -0.12961195

backbone.layers.1.0.bias f4 [64]
00000000: 39ef c6bd 8880 1cbe c8c2 ffbe 04fe a13d
00000010: 4202 c03c 12f4 d8be 2e96 013b d663 c4bd
00000020: f2bb 74bd bf9b 9a3d c075 8abe f44a 66bd
00000030: 4063 77bd 6b12 f73d 3d35 fd3c 704f 303d
00000040: 7489 d4bd aba5 5dbe 69da a2be aa70 10be
00000050: c884 b1be 0ca1 033e ba0e 73be c11e 73bd
00000060: 98a8 6b3d b3ac 0f3e 2148 8d3d 55d2 69bd
00000070: e3fe ad3d e8b8 8a3d 672c 8fbe 7b6b 173e
00000080: aa86 8fbe 6de9 253d 98d2 d6be 36ec 783d
00000090: c353 5dbe 7717 f63d 1ed7 9fbd d2d4 95bd
000000a0: 4574 913d 3265 883d 5408 44be aaa0 103e
000000b0: 11d3 bb3d c35e 98bd 1380 27be b132 c23d
000000c0: 8d71 fd3d 5b86 bbbe deb1 76bd 5339 ec3d
000000d0: 4de7 1cbe 4d98 e6bc 1307 c13d cd6a 5abe
000000e0: 0c79 953d b124 8b3c 1770 68bd 4953 93be
000000f0: 52ce f23d 9631 b03d 0645 30be 641f 13bd
-0.09713597 -0.15283406 -0.49953294 0.07909778 0.023438577 -0.4237371 0.0019773352 -0.09589355
-0.05974955 0.075492375 -0.2704296 -0.056223825 -0.060397387 0.1206406 0.030909175 0.043044508
-0.103777796 -0.21645229 -0.3180726 -0.14105478 -0.34671617 0.12854403 -0.23736086 -0.0593555
0.05753383 0.14030723 0.06898523 -0.057085354 0.084958814 0.06773549 -0.27963564 0.14787094
-0.28032428 0.040505815 -0.41957545 0.060772143 -0.21613984 0.12016194 -0.07804702 -0.07315983
0.07102255 0.066599265 -0.19143802 0.14123788 0.09171117 -0.07439949 -0.1635745 0.09482325
0.12375174 -0.36625943 -0.06022822 0.11534371 -0.15322609 -0.028148795 0.094251774 -0.21329804
0.072984785 0.01698527 -0.056747522 -0.2877448 0.11855759 0.08603208 -0.1721383 -0.03591861

backbone.layers.2.0.weight f4 [64, 64, 3]
00000000: 7407 67bb 7d42 8abe ac3b 27be d04d 003e
00000010: 32a0 473d 078d 89be 02b5 2bbd e2ec 96bd
00000020: 738c 84be 1733 09be 2a10 393e cf7c 32be
00000030: 9449 5dbd f1b8 743d 2618 72bd 8886 72be
00000040: 40bc 7dbd 8112 183e b030 713c e428 2cbe
00000050: 760e 2a3d 920e fdbd d647 8a3c eab4 a1be
00000060: f6dc 203e fd6e 823e f2e6 3c3e 4888 4dbe
00000070: cd31 7a3d d0be e4bc 37a9 a7be 9ab7 bebc
00000080: b477 a8be eb2d 61be 1d34 aabe 703f d73d
00000090: 8751 023e 6391 61be d408 66be c36a 513d
000000a0: dbc0 e3be 5f2f cd3e 1daf fc3d 20b7 89be
000000b0: 3558 01bf 91f0 e1be 4062 fd3d 447b 1e3b
000000c0: 38f4 033e b177 63be d388 0e3d 2ddd 9fbe
000000d0: 76cc 56be 8b87 0dbe ab15 87be 8b6d 90be
000000e0: 5ad5 9abd 5bb7 a5be 8c7b 493e dfb4 49be
000000f0: 8d8a 103e 9886 e23c 9fae dcbd 25e7 203d
00000100: 770a 973d c0fe c9bd 0b98 6b3d 5521 02bf
00000110: f43b 1c3e 3de0 febe 652b 90bd fd3c 2c3c
00000120: 045f 34be 88e4 cfbc 0017 d63c 2e17 abbe
00000130: 4995 72bd 4842 5fbd e984 ce3c 23f9 bc3d
00000140: acd2 7b3d be88 85bd 90bd 3bbe d1f7 8fbe
00000150: 2c5b 4a3d 4c58 d9be 5005 20be 3ddf 0abe
00000160: 7d7d be3c 080a 193d aa40 ab3b e0e8 c6bd
00000170: afe6 923e 0393 983c 6998 dd3b 122c fbbe
00000180: c0b6 423e c8a4 2ebc f14e 3cbe 9854 c8bd
00000190: 15d6 62be e1ec b73d 9835 95be 5eff 1fbd
000001a0: 05d3 f2be c699 5bbc 22c5 a0be ba58 373d
000001b0: 59dd 88bd b395 0abd 3072 e8be 1368 1dbe
000001c0: b8d7 0c3c c56e c8be da85 923d 9489 d2be
000001d0: 5837 2c3e ba14 d4bd b372 07bd e979 863d
000001e0: 84e4 24be 999a 2abe 400c 8d3d 9cac 07bf
000001f0: c0ec 29bd fdae 61be a957 55be 85ff ae38
00000200: 3c69 7bbe 5b9a 46be a0ad 34be 3d21 6dbe
00000210: 8957 f9bb 472f 993d 1cfb d2bd 0a1c 8ebc
00000220: a62f 03be 2180 9dbd d34d 6cbe 4966 2fbd
00000230: c48a fe3d 3f7e 2dbe 874b 8e3e c3db d0be
00000240: 8e8e 83be c04a bbbe 75d7 0e3e fb9b 1fbe
00000250: 61f1 673d 113c 85bc e8ee 99be b09b 61be
00000260: d10c 863d a6a2 09bf 0604 133c 3833 0cbe
00000270: 0dfb 1ebe ebd1 303c 444b 24be 8a1a b83c
00000280: e43a cdbd 7f96 7bbd 22dc ac3d 38fd c33d
00000290: 6687 823c 1e88 c6be d016 afbe 08dc cdbc
000002a0: 26f9 463e d6bf 0c3d 43ca 8dbe 81da d6be
000002b0: 766f cebe 4d1b 9d3c eaad 763d a2ac dfbd
000002c0: 54e0 59be 8040 193e 3ce5 5aba 41d8 c2bd
000002d0: cea3 34be b6b8 f63d 1d59 6abe 42d9 eabd
000002e0: 3d55 833e b697 bbbd 73b7 4b3d 9147 9ebe
000002f0: 0b7f c7bc e71e 88bc 3da8 923b 1d2e 9b3e
00000300: e639 9dbe b416 c73b 4a39 e93b 141a a9bd
00000310: 23f1 92be a740 3c3e 7ed7 703e 0879 f3be
00000320: b771 4738 8559 ba3d 9d16 65bd e1dd 8f3d
00000330: 8f34 12bd 5eff 163d 0855 ccbb 49ff cfbe
00000340: 7463 0ebf e044 94be 11d1 12be 2f86 84bd
00000350: 50f5 02be 688d 853e c1ac e33d c220 38be
00000360: ff7c 1ebf 935d 343c 8c0a 1dbf e2e5 04be
00000370: 57de 103d 5941 11be 756d 14be 8ee7 433d
00000380: 12f2 7bbe 169c d0bd 6de9 a9be 5443 90be
00000390: 6532 60bb f489 31bd 0d26 1e3c ceec 83be
000003a0: a06f 66be 6317 d5be 77ad 693e ea51 2b3e
000003b0: faa6 a0bd d3a7 a2bd 6881 9ebe 1e69 3abe
000003c0: 3f4c 963d 4b8e 173d 1957 b7be a46b aabe
000003d0: ed77 023e 8eab 21be 6021 5abe a0dd 38bc
000003e0: cddc 1bbe 4eb5 01be c030 84be 97da 723e
000003f0: dbb4 3fbe f4cd 293d 9755 46be 7d7e 8ebd
-0.0035252245 -0.27003852 -0.16331357 0.12529683 0.04873676 -0.26865408 -0.04192067 -0.073694006
-0.25888404 -0.13398395 0.18072572 -0.17430423 -0.054025248 0.059746686 -0.05910506 -0.23684132
-0.061947107 0.14850809 0.014721081 -0.16812474 0.041517697 -0.12356295 0.016879957 -0.3158334
0.1570929 0.25475302 0.18447474 -0.20071518 0.06108265 -0.027923018 -0.32746288 -0.023280907
-0.32903826 -0.21990173 -0.33242884 0.105101466 0.12726413 -0.22028117 -0.22464305 0.051127207
-0.44483075 0.40075204 0.12338088 -0.26897526 -0.5052522 -0.4412885 0.12372255 0.0024182359
0.12886131 -0.22213627 0.034798454 -0.3122343 -0.20976433 -0.13821237 -0.2638372 -0.28208575
-0.07560225 -0.32366452 0.19676036 -0.19697903 0.14115353 0.02765207 -0.10775494 0.039282937
0.07375043 -0.09863043 0.057518046 -0.5083211 0.15257245 -0.49780455 -0.07039527 0.010512588
-0.1761437 -0.025377527 0.026134014 -0.33416122 -0.0592244 -0.05450657 0.02520986 0.092272066
0.06148021 -0.06520222 -0.18334031 -0.28118756 0.049403355 -0.42450178 -0.15627027 -0.13561721
0.023253197 0.037363082 0.0052262144 -0.09712386 0.28691623 0.018624788 0.0067625535 -0.4905706
0.19015026 -0.010659404 -0.18389489 -0.0978176 -0.22151978 0.08980728 -0.2914245 -0.039061897
-0.4742662 -0.013403362 -0.314004 0.04476235 -0.06682844 -0.03383417 -0.45399618 -0.15371732
0.008596353 -0.3914701 0.071544364 -0.4112059 0.16817987 -0.10355516 -0.03306837 0.06566221
-0.16102797 -0.16660537 0.06887102 -0.52997756 -0.041485548 -0.22039409 -0.20834221 8.344561e-05
-0.24551862 -0.1939482 -0.17644358 -0.2315721 -0.007609312 0.074797206 -0.103018016 -0.017347354
-0.12811145 -0.07690454 -0.23076563 -0.042822156 0.12428811 -0.1694269 0.27791998 -0.40792665
-0.25694698 -0.36580467 0.13949378 -0.15586846 0.05662668 -0.016263993 -0.30065084 -0.22032046
0.06545413 -0.53763807 0.008973127 -0.13691413 -0.15525456 0.010792236 -0.16044337 0.022473592
-0.10020998 -0.06142282 0.084404245 0.09569782 0.015933704 -0.38775724 -0.34197092 -0.025129333
0.1943098 0.034362637 -0.27693376 -0.4196358 -0.40319413 0.019178057 0.06022445 -0.10921599
-0.2127698 0.14966011 -0.00083501986 -0.095139034 -0.17640612 0.120469496 -0.22885557 -0.1146722
0.2565097 -0.09159796 0.049735498 -0.30913976 -0.024352571 -0.016616298 0.004475622 0.3030862
-0.30708236 0.0060757045 0.007117425 -0.08256927 -0.28699598 0.18384038 0.23519704 -0.47553277
4.7551202e-05 0.09099106 -0.05592977 0.07024742 -0.035694655 0.03686463 -0.0062357225 -0.40624455
-0.55620503 -0.28958797 -0.14337565 -0.06470906 -0.12788892 0.26084447 0.111169346 -0.17981246
-0.6190948 0.011008638 -0.6134422 -0.12978318 0.03536829 -0.14185084 -0.1449488 0.04782825
-0.24604061 -0.10186021 -0.33185902 -0.28176367 -0.0034209725 -0.043344453 0.009652627 -0.25766605
-0.22503519 -0.41619405 0.22820078 0.16730466 -0.07844348 -0.07942166 -0.30958104 -0.18204162
0.073387615 0.037000936 -0.35808638 -0.33285248 0.1274106 -0.15788099 -0.21301794 -0.011283308
-0.15220948 -0.12666818 -0.25818443 0.23716198 -0.18721335 0.041456178 -0.19368587 -0.069577195

backbone.layers.2.0.bias f4 [64]
00000000: dc0f 2fbd 62f0 76bd 7b23 80be 02bb 4fbe
00000010: 0be5 613a 6819 0b3e 5534 a8be 72c7 45be
00000020: ebc0 92bd 3c06 f6bd 2073 c1bd 3b43 553c
00000030: 093e e8be 3085 1e3d af47 de3d 6706 acbd
00000040: 7d35 2f3d c3b8 eb3d 2839 99bd 0ba2 453c
00000050: 6e39 963d 0ebf fe3c 40af 013e 5e72 cdbc
00000060: 8053 753c db4d 103e 7a0f 7ebe a8a1 b7bc
00000070: 41f2 843d 9515 553d ebf9 3dbd 396b 043e
00000080: 0dd5 42bd f8d2 b1be bf81 fcbd af64 023e
00000090: bf78 b2be 6b24 c6be 75e0 e0bd fe52 b0be
000000a0: 466a f6bc be0d 0d3e 7857 1a3e 3e69 3c3d
000000b0: f9c0 4dbe 012d b3bd 5471 10bd 7349 0c3e
000000c0: e916 5b3d 3fe0 17bc 1239 5ebe ac86 413d
000000d0: 6153 363b f969 68bc 82f5 47be 49de 4ebc
000000e0: dbb5 0f3c 2991 113e 1cdd d2bc 7b37 54be
000000f0: 05d3 ff3d d4d2 603b ff86 11be 2d11 c23d
-0.042739734 -0.06028784 -0.2502707 -0.20286182 0.0008617199 0.1358391 -0.32852426 -0.19314364
-0.071657024 -0.12012908 -0.094457865 0.013016517 -0.4535983 0.038701236 0.10853516 -0.08399659
0.04277562 0.1150985 -0.07481605 0.01206256 0.073351726 0.031096961 0.12664509 -0.025078949
0.014973521 0.140922 -0.24810591 -0.02241595 0.06491519 0.052022535 -0.04638092 0.12931527
-0.047566462 -0.3473127 -0.123294346 0.1273372 -0.34857747 -0.3869966 -0.10980312 -0.34438318
-0.030079972 0.13774773 0.15072429 0.045998804 -0.20093144 -0.08748818 -0.035264328 0.13699894
0.053488646 -0.009269773 -0.21701458 0.047247574 0.0027820694 -0.014185422 -0.19527248 -0.012626239
0.008771385 0.1421553 -0.025740199 -0.20724289 0.12491421 0.003430535 -0.14211653 0.09475932

out.weight f4 [18, 64]
00000000: 1ca2 0abe 78e0 b1be 1bc2 64be b36a 513d
00000010: 59a7 00bd 6a8f 6d3e e09e 10be cd2a 7bbe
00000020: f9c0 86be a34b 7fbe 9cff d0be 9993 aabd
00000030: 5eda 87be 49b1 573e 5eb0 343e 09fa 12be
00000040: f530 763e c692 303e 6ea0 023c f3d3 c23c
00000050: 33e6 c03d 3585 1d3e 0299 723e 802f 98be
00000060: 9bbe 313e 871b 3e3e 601a 88bd 291b 29be
00000070: ef55 733e 8676 3b3e 1d86 8ebe 0a6c 553e
00000080: bf00 d6be 2e44 e9bd a57b 60be 1c5c 143e
00000090: b5f6 bcbe 9838 e03d 9102 d2be 9df4 f2be
000000a0: 848a 1ebb c49e 403e c76d 3b3e 5032 093e
000000b0: 68a4 363b ea81 b4be 8b48 83be efd6 613e
000000c0: c852 3b3e 7b41 82be 5971 97be c373 9c3e
000000d0: 7bad 193e 0da3 c7bd c7d2 24bd 929f 53be
000000e0: 96ce 103c 0781 093e 94d3 6ebe 3d78 f13d
000000f0: bf36 143e 8036 573c a184 d1be 171a 1a3e
00000100: 2ce0 f4bc b36b 81bc b20e dcbb da6f 1d3e
00000110: e4d3 5e3d 85a0 a53d 88a2 27bd 3ffc 7a3d
00000120: 55ab b1bd d4c9 8d3d d371 a73d 7af1 44bd
00000130: 9005 e93b 2a31 b63c 5e1f 333d cf06 143d
00000140: ba5d fdbb 9cec d23c cbd1 b53d dbb0 7ebe
00000150: 1c4f 8ebd 7b0c 1fbe 700c dcbd 0cda 973d
00000160: 20f6 e33b 3e6d 323d 358a d33d 2839 133d
00000170: c644 17be 7793 39be 0f1a 123e 56a9 f9bd
00000180: bdba 05bd 816f 173e 2e48 64bd fc5d 5dbe
00000190: 16cf c0bd 7566 ea3d d8c2 12bd aa8d 3e3e
000001a0: f6d6 1d3e 5b37 59bd 4eb3 bcbd 2697 3cbe
000001b0: 2641 733d 8605 c23d ccad cdbb 203f b23b
000001c0: 0615 67be ff8c 8c3c fb12 263d b71d 69be
000001d0: c350 983c 6c4d d2bd 9964 3e3e bd6c 083d
000001e0: 2411 303d 8de1 ee3b 5371 e13d 968f 053e
000001f0: 6fe2 20be f25a b6be bfcc a43c bfa1 92bc
00000200: 7ad4 8d3e 5250 133e d0e3 bfbe 25bd 50be
00000210: 7f6d b2bd cdc5 06be 56e1 3d3e f62e 723e
00000220: 2a71 0a3e aa18 56be b4fa b4be 313d fa3c
00000230: 86b8 7d3e fdd4 18be c389 1abc b099 b5be
00000240: e08f 90bd 1ca8 c63d b909 1bbe 55dd d2bd
00000250: 535b 1b3e 06c4 92bd 4829 8f3d d81f b0be
00000260: 2ff8 a738 3bf2 8bbd f3fe 773d 276a 0cbf
00000270: 8a31 a23d d31a b33c 72bf 14be e5b2 3bbe
00000280: 36a7 1f3e 222a e6be 2c39 2c3e fd35 1a3d
00000290: 1eda a53d 2c8f 37be 7c10 053e 618d 1b3e
000002a0: 8e05 053e f587 a8bd 2252 803d 190c 11be
000002b0: ed02 3d3e 44bd 613a 7e79 883d cb1a 9abc
000002c0: eb22 8e3d 3f53 c53d 270a 153e 5995 8dbd
000002d0: 6b2e 85bd a2e4 8f3d 2899 8cbe 909f 253e
000002e0: 5f76 353d 0899 cdbc acb2 5abe bc83 56bd
000002f0: 6796 82ba 718f 623d e577 0ebe 4616 be3d
00000300: a3ed 47be 2729 123e bb69 71be 31f0 d83d
00000310: 30b2 0a3e 602b a63c 8407 5cbc 1de3 663e
00000320: a04b 613d d44c b63d 8d08 4a3d 5409 86be
00000330: 3020 583e 5ccc f93d f13c 8ebe 6974 6ebc
00000340: f785 98be 3b5e 5abc 7172 7c3c 05be a3bd
00000350: 94ed 83be fe70 8dbd 7e35 84be 9c4d dd3d
00000360: e22c fe3d 0a72 b83c 138b 12be 84fe c33d
00000370: 4793 793d ae8d aa3d 4bce 383e 6523 cbbd
00000380: 0aed 1a3e 171d 23be e643 063d 3cf3 8abd
00000390: 7fd7 cdbb feaa 08be f718 7e3d a72c f83d
000003a0: 8f87 cfbd 373a 8cbc 6869 54be 8cc0 9ebc
000003b0: c8f9 673d dc34 863d cbc9 143d 29ae 543d
000003c0: b839 533d dbc6 d2bc 3a57 be3d 6b9c 72be
000003d0: cf40 293e 8f77 8cbe 7db7 1ebe fff0 0a3e
000003e0: ac89 d53d a8d7 8ebe 66ff 19bd eade 173e
000003f0: 386d 59bd ca40 993d 5ad3 e2bc 68b9 6ebe
-0.13538402 -0.3474157 -0.2233967 0.051127147 -0.031409595 0.2319924 -0.14123106 -0.24528046
-0.263191 -0.24931197 -0.40820014 -0.08328933 -0.26533788 0.21063723 0.17645404 -0.14353193
0.24042113 0.1724349 0.00797282 0.023782706 0.09418907 0.15382846 0.2369118 -0.2972374
0.17357866 0.18565188 -0.06645656 -0.16514267 0.2376325 0.18306932 -0.27836695 0.20841995
-0.41797444 -0.11389957 -0.21922167 0.14488262 -0.36906973 0.109482944 -0.41017583 -0.4745225
-0.0024191448 0.18810564 0.18303595 0.13398099 0.002786899 -0.35255367 -0.25641283 0.22054647
0.18293297 -0.25440583 -0.29578665 0.3055707 0.15007584 -0.09747896 -0.040240075 -0.2066634
0.008838316 0.13428126 -0.23322898 0.11790512 0.14474009 0.013135552 -0.409215 0.15049015
-0.02989205 -0.015798425 -0.006715619 0.15374699 0.054401293 0.08087257 -0.040926486 0.061275717
-0.08675257 0.06923261 0.08176007 -0.048081852 0.007111259 0.02224024 0.043731086 0.036139306
-0.0077321203 0.02574759 0.088779055 -0.24872153 -0.06948683 -0.15532105 -0.1074456 0.07414636
0.0069568306 0.043561213 0.10329095 0.03594318 -0.14772329 -0.1812266 0.14267753 -0.121905014
-0.03264879 0.14788629 -0.0557329 -0.21617883 -0.094144985 0.114453234 -0.03583035 0.18608728
0.15414032 -0.053031307 -0.09213887 -0.18417034 0.059388302 0.0947371 -0.0062768217 0.005439654
-0.22566614 0.017157076 0.040545445 -0.22765242 0.018593198 -0.10268673 0.18593062 0.033306826
0.042985097 0.0072900713 0.11007943 0.13043055 -0.15711378 -0.3561626 0.020117162 -0.017899392
0.2770117 0.14386109 -0.37478495 -0.20384653 -0.08712291 -0.13161393 0.1854299 0.23650727
0.13519731 -0.20907846 -0.3534752 0.030546756 0.24777421 -0.14924999 -0.009432259 -0.35468817
-0.07058692 0.09700033 -0.15140428 -0.10296122 0.15171556 -0.07166295 0.06990296 -0.34399295
8.009408e-05 -0.06833311 0.060545873 -0.54849476 0.07919605 0.021863377 -0.14526156 -0.18329962
0.1559113 -0.4495402 0.16818684 0.037649143 0.08098243 -0.1792571 0.1299457 0.1519065
0.129904 -0.08229057 0.062656656 -0.14164771 0.18458147 0.00086112716 0.06663798 -0.018811604
0.06940254 0.096350186 0.14554654 -0.069132514 -0.06502994 0.0702603 -0.274606 0.1617415
0.04430234 -0.025097385 -0.2135722 -0.052371725 -0.0009963036 0.055312578 -0.13912924 0.09281592
-0.19524245 0.14273511 -0.23575489 0.10592688 0.13544536 0.020284355 -0.013429526 0.22547574
0.055003762 0.089013726 0.04932456 -0.26178992 0.21106029 0.121971816 -0.2778087 -0.0145541215
-0.29789707 -0.01332813 0.015408144 -0.07995228 -0.25767195 -0.06906317 -0.2582206 0.108058184
0.124109045 0.022515316 -0.14310865 0.095700294 0.06093147 0.083278045 0.18047445 -0.0991886
0.15129486 -0.15929066 0.032779597 -0.067846745 -0.0062817927 -0.13346478 0.062035527 0.12117892
-0.101332776 -0.017117603 -0.20743334 -0.019378923 0.056634694 0.06553051 0.036325257 0.051923905
0.051568717 -0.025729587 0.09293981 -0.23692481 0.16528629 -0.27434966 -0.15499683 0.13568495
0.104266495 -0.27898908 -0.037597083 0.14831129 -0.053082675 0.07483061 -0.02768867 -0.23312914

out.bias f4 [18]
00000000: 1805 c93d 02a5 7ebe e779 22be dc7b 56be
00000010: 18ba 16be e432 efbd 7c7e 72bd ffd5 9fbb
00000020: 1ca5 aebd e1af 443d 9868 7cbd 9143 273d
00000030: 9c4d 25be feba c9bb 7852 33be fb9e e6bd
00000040: a79b 05be ceb7 19be
0.09815425 -0.24867633 -0.15866815 -0.20945686 -0.14719427 -0.116796285 -0.059202656 -0.0048778052
-0.08527586 0.048019294 -0.061623186 0.04083592 -0.16142887 -0.0061563244 -0.17511928 -0.11260792
-0.13047658 -0.15011522
